…
I0425 14:11:35.622573 30982 upgrade_proto.cpp:70] Successfully upgraded file specified using deprecated input fields.
W0425 14:11:35.622583 30982 upgrade_proto.cpp:72] Note that future Caffe releases will only support input layers and not input fields.
I0425 14:11:35.635681 30982 net.cpp:60] Initializing net from parameters: 
name: "DarkNet_TrunkBD_PDHeadHand_NonCat_1A_test"
state {
  phase: TEST
  level: 0
}
layer {
  name: "input"
  type: "Input"
  top: "data"
  input_param {
    shape {
      dim: 1
      dim: 3
      dim: 288
      dim: 512
    }
  }
}
layer {
  name: "conv1"
  type: "Convolution"
  bottom: "data"
  top: "conv1"
  param {
    lr_mult: 0.1
    decay_mult: 1
  }
  convolution_param {
    num_output: 32
    bias_term: true
    group: 1
    weight_filler {
      type: "gaussian"
      std: 0.01
    }
    bias_filler {
      type: "constant"
      value: 0
    }
    pad_h: 1
    pad_w: 1
    kernel_h: 3
    kernel_w: 3
    stride_h: 2
    stride_w: 2
  }
}
layer {
  name: "conv1_relu"
  type: "ReLU"
  bottom: "conv1"
  top: "conv1"
}
layer {
  name: "conv2"
  type: "Convolution"
  bottom: "conv1"
  top: "conv2"
  param {
    lr_mult: 0.1
    decay_mult: 1
  }
  convolution_param {
    num_output: 32
    bias_term: true
    group: 1
    weight_filler {
      type: "gaussian"
      std: 0.01
    }
    bias_filler {
      type: "constant"
      value: 0
    }
    pad_h: 1
    pad_w: 1
    kernel_h: 3
    kernel_w: 3
    stride_h: 2
    stride_w: 2
  }
}
layer {
  name: "conv2_relu"
  type: "ReLU"
  bottom: "conv2"
  top: "conv2"
}
layer {
  name: "conv3_1"
  type: "Convolution"
  bottom: "conv2"
  top: "conv3_1"
  param {
    lr_mult: 0.1
    decay_mult: 1
  }
  convolution_param {
    num_output: 64
    bias_term: true
    group: 1
    weight_filler {
      type: "gaussian"
      std: 0.01
    }
    bias_filler {
      type: "constant"
      value: 0
    }
    pad_h: 1
    pad_w: 1
    kernel_h: 3
    kernel_w: 3
    stride_h: 1
    stride_w: 1
  }
}
layer {
  name: "conv3_1_relu"
  type: "ReLU"
  bottom: "conv3_1"
  top: "conv3_1"
}
layer {
  name: "conv3_2"
  type: "Convolution"
  bottom: "conv3_1"
  top: "conv3_2"
  param {
    lr_mult: 0.1
    decay_mult: 1
  }
  convolution_param {
    num_output: 32
    bias_term: true
    group: 1
    weight_filler {
      type: "gaussian"
      std: 0.01
    }
    bias_filler {
      type: "constant"
      value: 0
    }
    pad_h: 0
    pad_w: 0
    kernel_h: 1
    kernel_w: 1
    stride_h: 1
    stride_w: 1
    engine: CAFFE
  }
}
layer {
  name: "conv3_2_relu"
  type: "ReLU"
  bottom: "conv3_2"
  top: "conv3_2"
}
layer {
  name: "conv3_3"
  type: "Convolution"
  bottom: "conv3_2"
  top: "conv3_3"
  param {
    lr_mult: 0.1
    decay_mult: 1
  }
  convolution_param {
    num_output: 128
    bias_term: true
    group: 1
    weight_filler {
      type: "gaussian"
      std: 0.01
    }
    bias_filler {
      type: "constant"
      value: 0
    }
    pad_h: 1
    pad_w: 1
    kernel_h: 3
    kernel_w: 3
    stride_h: 2
    stride_w: 2
  }
}
layer {
  name: "conv3_3_relu"
  type: "ReLU"
  bottom: "conv3_3"
  top: "conv3_3"
}
layer {
  name: "conv4_1"
  type: "Convolution"
  bottom: "conv3_3"
  top: "conv4_1"
  param {
    lr_mult: 0.1
    decay_mult: 1
  }
  convolution_param {
    num_output: 128
    bias_term: true
    group: 1
    weight_filler {
      type: "gaussian"
      std: 0.01
    }
    bias_filler {
      type: "constant"
      value: 0
    }
    pad_h: 1
    pad_w: 1
    kernel_h: 3
    kernel_w: 3
    stride_h: 1
    stride_w: 1
  }
}
layer {
  name: "conv4_1_relu"
  type: "ReLU"
  bottom: "conv4_1"
  top: "conv4_1"
}
layer {
  name: "conv4_2"
  type: "Convolution"
  bottom: "conv4_1"
  top: "conv4_2"
  param {
    lr_mult: 0.1
    decay_mult: 1
  }
  convolution_param {
    num_output: 64
    bias_term: true
    group: 1
    weight_filler {
      type: "gaussian"
      std: 0.01
    }
    bias_filler {
      type: "constant"
      value: 0
    }
    pad_h: 0
    pad_w: 0
    kernel_h: 1
    kernel_w: 1
    stride_h: 1
    stride_w: 1
    engine: CAFFE
  }
}
layer {
  name: "conv4_2_relu"
  type: "ReLU"
  bottom: "conv4_2"
  top: "conv4_2"
}
layer {
  name: "conv4_3"
  type: "Convolution"
  bottom: "conv4_2"
  top: "conv4_3"
  param {
    lr_mult: 0.1
    decay_mult: 1
  }
  convolution_param {
    num_output: 128
    bias_term: true
    group: 1
    weight_filler {
      type: "gaussian"
      std: 0.01
    }
    bias_filler {
      type: "constant"
      value: 0
    }
    pad_h: 1
    pad_w: 1
    kernel_h: 3
    kernel_w: 3
    stride_h: 1
    stride_w: 1
  }
}
layer {
  name: "conv4_3_relu"
  type: "ReLU"
  bottom: "conv4_3"
  top: "conv4_3"
}
layer {
  name: "conv4_4"
  type: "Convolution"
  bottom: "conv4_3"
  top: "conv4_4"
  param {
    lr_mult: 0.1
    decay_mult: 1
  }
  convolution_param {
    num_output: 64
    bias_term: true
    group: 1
    weight_filler {
      type: "gaussian"
      std: 0.01
    }
    bias_filler {
      type: "constant"
      value: 0
    }
    pad_h: 0
    pad_w: 0
    kernel_h: 1
    kernel_w: 1
    stride_h: 1
    stride_w: 1
    engine: CAFFE
  }
}
layer {
  name: "conv4_4_relu"
  type: "ReLU"
  bottom: "conv4_4"
  top: "conv4_4"
}
layer {
  name: "conv4_5"
  type: "Convolution"
  bottom: "conv4_4"
  top: "conv4_5"
  param {
    lr_mult: 0.1
    decay_mult: 1
  }
  convolution_param {
    num_output: 256
    bias_term: true
    group: 1
    weight_filler {
      type: "gaussian"
      std: 0.01
    }
    bias_filler {
      type: "constant"
      value: 0
    }
    pad_h: 1
    pad_w: 1
    kernel_h: 3
    kernel_w: 3
    stride_h: 1
    stride_w: 1
  }
}
layer {
  name: "conv4_5_relu"
  type: "ReLU"
  bottom: "conv4_5"
  top: "conv4_5"
}
layer {
  name: "pool4"
  type: "Pooling"
  bottom: "conv4_5"
  top: "pool4"
  pooling_param {
    pool: MAX
    kernel_size: 2
    stride: 2
  }
}
layer {
  name: "conv5_1"
  type: "Convolution"
  bottom: "pool4"
  top: "conv5_1"
  param {
    lr_mult: 0.1
    decay_mult: 1
  }
  convolution_param {
    num_output: 256
    bias_term: true
    group: 1
    weight_filler {
      type: "gaussian"
      std: 0.01
    }
    bias_filler {
      type: "constant"
      value: 0
    }
    pad_h: 1
    pad_w: 1
    kernel_h: 3
    kernel_w: 3
    stride_h: 1
    stride_w: 1
  }
}
layer {
  name: "conv5_1_relu"
  type: "ReLU"
  bottom: "conv5_1"
  top: "conv5_1"
}
layer {
  name: "conv5_2"
  type: "Convolution"
  bottom: "conv5_1"
  top: "conv5_2"
  param {
    lr_mult: 0.1
    decay_mult: 1
  }
  convolution_param {
    num_output: 128
    bias_term: true
    group: 1
    weight_filler {
      type: "gaussian"
      std: 0.01
    }
    bias_filler {
      type: "constant"
      value: 0
    }
    pad_h: 0
    pad_w: 0
    kernel_h: 1
    kernel_w: 1
    stride_h: 1
    stride_w: 1
    engine: CAFFE
  }
}
layer {
  name: "conv5_2_relu"
  type: "ReLU"
  bottom: "conv5_2"
  top: "conv5_2"
}
layer {
  name: "conv5_3"
  type: "Convolution"
  bottom: "conv5_2"
  top: "conv5_3"
  param {
    lr_mult: 0.1
    decay_mult: 1
  }
  convolution_param {
    num_output: 256
    bias_term: true
    group: 1
    weight_filler {
      type: "gaussian"
      std: 0.01
    }
    bias_filler {
      type: "constant"
      value: 0
    }
    pad_h: 1
    pad_w: 1
    kernel_h: 3
    kernel_w: 3
    stride_h: 1
    stride_w: 1
  }
}
layer {
  name: "conv5_3_relu"
  type: "ReLU"
  bottom: "conv5_3"
  top: "conv5_3"
}
layer {
  name: "conv5_4"
  type: "Convolution"
  bottom: "conv5_3"
  top: "conv5_4"
  param {
    lr_mult: 0.1
    decay_mult: 1
  }
  convolution_param {
    num_output: 128
    bias_term: true
    group: 1
    weight_filler {
      type: "gaussian"
      std: 0.01
    }
    bias_filler {
      type: "constant"
      value: 0
    }
    pad_h: 0
    pad_w: 0
    kernel_h: 1
    kernel_w: 1
    stride_h: 1
    stride_w: 1
    engine: CAFFE
  }
}
layer {
  name: "conv5_4_relu"
  type: "ReLU"
  bottom: "conv5_4"
  top: "conv5_4"
}
layer {
  name: "conv5_5"
  type: "Convolution"
  bottom: "conv5_4"
  top: "conv5_5"
  param {
    lr_mult: 0.1
    decay_mult: 1
  }
  convolution_param {
    num_output: 256
    bias_term: true
    group: 1
    weight_filler {
      type: "gaussian"
      std: 0.01
    }
    bias_filler {
      type: "constant"
      value: 0
    }
    pad_h: 1
    pad_w: 1
    kernel_h: 3
    kernel_w: 3
    stride_h: 1
    stride_w: 1
  }
}
layer {
  name: "conv5_5_relu"
  type: "ReLU"
  bottom: "conv5_5"
  top: "conv5_5"
}
layer {
  name: "pool5"
  type: "Pooling"
  bottom: "conv5_5"
  top: "pool5"
  pooling_param {
    pool: MAX
    kernel_size: 2
    stride: 2
  }
}
layer {
  name: "conv6_1"
  type: "Convolution"
  bottom: "pool5"
  top: "conv6_1"
  param {
    lr_mult: 1
    decay_mult: 1
  }
  convolution_param {
    num_output: 128
    bias_term: true
    group: 1
    weight_filler {
      type: "gaussian"
      std: 0.01
    }
    bias_filler {
      type: "constant"
      value: 0
    }
    pad_h: 1
    pad_w: 1
    kernel_h: 3
    kernel_w: 3
    stride_h: 1
    stride_w: 1
  }
}
layer {
  name: "conv6_1_relu"
  type: "ReLU"
  bottom: "conv6_1"
  top: "conv6_1"
}
layer {
  name: "conv6_2"
  type: "Convolution"
  bottom: "conv6_1"
  top: "conv6_2"
  param {
    lr_mult: 1
    decay_mult: 1
  }
  convolution_param {
    num_output: 128
    bias_term: true
    group: 1
    weight_filler {
      type: "gaussian"
      std: 0.01
    }
    bias_filler {
      type: "constant"
      value: 0
    }
    pad_h: 1
    pad_w: 1
    kernel_h: 3
    kernel_w: 3
    stride_h: 1
    stride_w: 1
  }
}
layer {
  name: "conv6_2_relu"
  type: "ReLU"
  bottom: "conv6_2"
  top: "conv6_2"
}
layer {
  name: "conv6_3"
  type: "Convolution"
  bottom: "conv6_2"
  top: "conv6_3"
  param {
    lr_mult: 1
    decay_mult: 1
  }
  convolution_param {
    num_output: 128
    bias_term: true
    group: 1
    weight_filler {
      type: "gaussian"
      std: 0.01
    }
    bias_filler {
      type: "constant"
      value: 0
    }
    pad_h: 1
    pad_w: 1
    kernel_h: 3
    kernel_w: 3
    stride_h: 1
    stride_w: 1
  }
}
layer {
  name: "conv6_3_relu"
  type: "ReLU"
  bottom: "conv6_3"
  top: "conv6_3"
}
layer {
  name: "conv6_4"
  type: "Convolution"
  bottom: "conv6_3"
  top: "conv6_4"
  param {
    lr_mult: 1
    decay_mult: 1
  }
  convolution_param {
    num_output: 128
    bias_term: true
    group: 1
    weight_filler {
      type: "gaussian"
      std: 0.01
    }
    bias_filler {
      type: "constant"
      value: 0
    }
    pad_h: 1
    pad_w: 1
    kernel_h: 3
    kernel_w: 3
    stride_h: 1
    stride_w: 1
  }
}
layer {
  name: "conv6_4_relu"
  type: "ReLU"
  bottom: "conv6_4"
  top: "conv6_4"
}
layer {
  name: "conv6_5"
  type: "Convolution"
  bottom: "conv6_4"
  top: "conv6_5"
  param {
    lr_mult: 1
    decay_mult: 1
  }
  convolution_param {
    num_output: 128
    bias_term: true
    group: 1
    weight_filler {
      type: "gaussian"
      std: 0.01
    }
    bias_filler {
      type: "constant"
      value: 0
    }
    pad_h: 1
    pad_w: 1
    kernel_h: 3
    kernel_w: 3
    stride_h: 1
    stride_w: 1
  }
}
layer {
  name: "conv6_5_relu"
  type: "ReLU"
  bottom: "conv6_5"
  top: "conv6_5"
}
layer {
  name: "conv6_6"
  type: "Convolution"
  bottom: "conv6_5"
  top: "conv6_6"
  param {
    lr_mult: 1
    decay_mult: 1
  }
  convolution_param {
    num_output: 128
    bias_term: true
    group: 1
    weight_filler {
      type: "gaussian"
      std: 0.01
    }
    bias_filler {
      type: "constant"
      value: 0
    }
    pad_h: 1
    pad_w: 1
    kernel_h: 3
    kernel_w: 3
    stride_h: 1
    stride_w: 1
  }
}
layer {
  name: "conv6_6_relu"
  type: "ReLU"
  bottom: "conv6_6"
  top: "conv6_6"
}
layer {
  name: "conv4_5_1_inter_1"
  type: "Convolution"
  bottom: "conv4_5"
  top: "conv4_5_1_inter_1"
  param {
    lr_mult: 1
    decay_mult: 1
  }
  convolution_param {
    num_output: 64
    bias_term: true
    group: 1
    weight_filler {
      type: "gaussian"
      std: 0.01
    }
    bias_filler {
      type: "constant"
      value: 0
    }
    pad_h: 0
    pad_w: 0
    kernel_h: 1
    kernel_w: 1
    stride_h: 1
    stride_w: 1
    engine: CAFFE
  }
}
layer {
  name: "conv4_5_1_inter_1_relu"
  type: "ReLU"
  bottom: "conv4_5_1_inter_1"
  top: "conv4_5_1_inter_1"
}
layer {
  name: "conv4_5_1_inter_2"
  type: "Convolution"
  bottom: "conv4_5_1_inter_1"
  top: "conv4_5_1_inter_2"
  param {
    lr_mult: 1
    decay_mult: 1
  }
  convolution_param {
    num_output: 128
    bias_term: true
    group: 1
    weight_filler {
      type: "gaussian"
      std: 0.01
    }
    bias_filler {
      type: "constant"
      value: 0
    }
    pad_h: 1
    pad_w: 1
    kernel_h: 3
    kernel_w: 3
    stride_h: 1
    stride_w: 1
  }
}
layer {
  name: "conv4_5_1_inter_2_relu"
  type: "ReLU"
  bottom: "conv4_5_1_inter_2"
  top: "conv4_5_1_inter_2"
}
layer {
  name: "conv4_5_1_mbox_loc"
  type: "Convolution"
  bottom: "conv4_5_1_inter_2"
  top: "conv4_5_1_mbox_loc"
  param {
    lr_mult: 1
    decay_mult: 1
  }
  param {
    lr_mult: 2
    decay_mult: 0
  }
  convolution_param {
    num_output: 24
    group: 1
    weight_filler {
      type: "xavier"
    }
    bias_filler {
      type: "constant"
      value: 0
    }
    pad_h: 1
    pad_w: 1
    kernel_h: 3
    kernel_w: 3
    stride_h: 1
    stride_w: 1
  }
}
layer {
  name: "conv4_5_1_mbox_loc_perm"
  type: "Permute"
  bottom: "conv4_5_1_mbox_loc"
  top: "conv4_5_1_mbox_loc_perm"
  permute_param {
    order: 0
    order: 2
    order: 3
    order: 1
  }
}
layer {
  name: "conv4_5_1_mbox_loc_flat"
  type: "Flatten"
  bottom: "conv4_5_1_mbox_loc_perm"
  top: "conv4_5_1_mbox_loc_flat"
  flatten_param {
    axis: 1
  }
}
layer {
  name: "conv4_5_1_mbox_conf"
  type: "Convolution"
  bottom: "conv4_5_1_inter_2"
  top: "conv4_5_1_mbox_conf"
  param {
    lr_mult: 1
    decay_mult: 1
  }
  param {
    lr_mult: 2
    decay_mult: 0
  }
  convolution_param {
    num_output: 12
    group: 1
    weight_filler {
      type: "xavier"
    }
    bias_filler {
      type: "constant"
      value: 0
    }
    pad_h: 1
    pad_w: 1
    kernel_h: 3
    kernel_w: 3
    stride_h: 1
    stride_w: 1
  }
}
layer {
  name: "conv4_5_1_mbox_conf_perm"
  type: "Permute"
  bottom: "conv4_5_1_mbox_conf"
  top: "conv4_5_1_mbox_conf_perm"
  permute_param {
    order: 0
    order: 2
    order: 3
    order: 1
  }
}
layer {
  name: "conv4_5_1_mbox_conf_flat"
  type: "Flatten"
  bottom: "conv4_5_1_mbox_conf_perm"
  top: "conv4_5_1_mbox_conf_flat"
  flatten_param {
    axis: 1
  }
}
layer {
  name: "conv4_5_1_mbox_priorbox"
  type: "PriorBox"
  bottom: "conv4_5_1_inter_2"
  bottom: "data"
  top: "conv4_5_1_mbox_priorbox"
  prior_box_param {
    flip: true
    clip: true
    variance: 0.1
    variance: 0.1
    variance: 0.2
    variance: 0.2
    pro_width: 0.08
    pro_width: 0.04
    pro_width: 0.056568541
    pro_width: 0.12
    pro_width: 0.06
    pro_width: 0.084852815
    pro_height: 0.08
    pro_height: 0.16
    pro_height: 0.11313708
    pro_height: 0.12
    pro_height: 0.24
    pro_height: 0.16970563
  }
}
layer {
  name: "conv5_5_1_inter_1"
  type: "Convolution"
  bottom: "conv5_5"
  top: "conv5_5_1_inter_1"
  param {
    lr_mult: 1
    decay_mult: 1
  }
  convolution_param {
    num_output: 64
    bias_term: true
    group: 1
    weight_filler {
      type: "gaussian"
      std: 0.01
    }
    bias_filler {
      type: "constant"
      value: 0
    }
    pad_h: 0
    pad_w: 0
    kernel_h: 1
    kernel_w: 1
    stride_h: 1
    stride_w: 1
    engine: CAFFE
  }
}
layer {
  name: "conv5_5_1_inter_1_relu"
  type: "ReLU"
  bottom: "conv5_5_1_inter_1"
  top: "conv5_5_1_inter_1"
}
layer {
  name: "conv5_5_1_inter_2"
  type: "Convolution"
  bottom: "conv5_5_1_inter_1"
  top: "conv5_5_1_inter_2"
  param {
    lr_mult: 1
    decay_mult: 1
  }
  convolution_param {
    num_output: 128
    bias_term: true
    group: 1
    weight_filler {
      type: "gaussian"
      std: 0.01
    }
    bias_filler {
      type: "constant"
      value: 0
    }
    pad_h: 1
    pad_w: 1
    kernel_h: 3
    kernel_w: 3
    stride_h: 1
    stride_w: 1
  }
}
layer {
  name: "conv5_5_1_inter_2_relu"
  type: "ReLU"
  bottom: "conv5_5_1_inter_2"
  top: "conv5_5_1_inter_2"
}
layer {
  name: "conv5_5_1_mbox_loc"
  type: "Convolution"
  bottom: "conv5_5_1_inter_2"
  top: "conv5_5_1_mbox_loc"
  param {
    lr_mult: 1
    decay_mult: 1
  }
  param {
    lr_mult: 2
    decay_mult: 0
  }
  convolution_param {
    num_output: 36
    group: 1
    weight_filler {
      type: "xavier"
    }
    bias_filler {
      type: "constant"
      value: 0
    }
    pad_h: 1
    pad_w: 1
    kernel_h: 3
    kernel_w: 3
    stride_h: 1
    stride_w: 1
  }
}
layer {
  name: "conv5_5_1_mbox_loc_perm"
  type: "Permute"
  bottom: "conv5_5_1_mbox_loc"
  top: "conv5_5_1_mbox_loc_perm"
  permute_param {
    order: 0
    order: 2
    order: 3
    order: 1
  }
}
layer {
  name: "conv5_5_1_mbox_loc_flat"
  type: "Flatten"
  bottom: "conv5_5_1_mbox_loc_perm"
  top: "conv5_5_1_mbox_loc_flat"
  flatten_param {
    axis: 1
  }
}
layer {
  name: "conv5_5_1_mbox_conf"
  type: "Convolution"
  bottom: "conv5_5_1_inter_2"
  top: "conv5_5_1_mbox_conf"
  param {
    lr_mult: 1
    decay_mult: 1
  }
  param {
    lr_mult: 2
    decay_mult: 0
  }
  convolution_param {
    num_output: 18
    group: 1
    weight_filler {
      type: "xavier"
    }
    bias_filler {
      type: "constant"
      value: 0
    }
    pad_h: 1
    pad_w: 1
    kernel_h: 3
    kernel_w: 3
    stride_h: 1
    stride_w: 1
  }
}
layer {
  name: "conv5_5_1_mbox_conf_perm"
  type: "Permute"
  bottom: "conv5_5_1_mbox_conf"
  top: "conv5_5_1_mbox_conf_perm"
  permute_param {
    order: 0
    order: 2
    order: 3
    order: 1
  }
}
layer {
  name: "conv5_5_1_mbox_conf_flat"
  type: "Flatten"
  bottom: "conv5_5_1_mbox_conf_perm"
  top: "conv5_5_1_mbox_conf_flat"
  flatten_param {
    axis: 1
  }
}
layer {
  name: "conv5_5_1_mbox_priorbox"
  type: "PriorBox"
  bottom: "conv5_5_1_inter_2"
  bottom: "data"
  top: "conv5_5_1_mbox_priorbox"
  prior_box_param {
    flip: true
    clip: true
    variance: 0.1
    variance: 0.1
    variance: 0.2
    variance: 0.2
    pro_width: 0.2
    pro_width: 0.1
    pro_width: 0.14142136
    pro_width: 0.3
    pro_width: 0.15
    pro_width: 0.21213204
    pro_width: 0.4
    pro_width: 0.2
    pro_width: 0.28284273
    pro_height: 0.2
    pro_height: 0.4
    pro_height: 0.28284273
    pro_height: 0.3
    pro_height: 0.6
    pro_height: 0.42426407
    pro_height: 0.4
    pro_height: 0.8
    pro_height: 0.56568545
  }
}
layer {
  name: "conv6_6_1_inter_1"
  type: "Convolution"
  bottom: "conv6_6"
  top: "conv6_6_1_inter_1"
  param {
    lr_mult: 1
    decay_mult: 1
  }
  convolution_param {
    num_output: 64
    bias_term: true
    group: 1
    weight_filler {
      type: "gaussian"
      std: 0.01
    }
    bias_filler {
      type: "constant"
      value: 0
    }
    pad_h: 0
    pad_w: 0
    kernel_h: 1
    kernel_w: 1
    stride_h: 1
    stride_w: 1
    engine: CAFFE
  }
}
layer {
  name: "conv6_6_1_inter_1_relu"
  type: "ReLU"
  bottom: "conv6_6_1_inter_1"
  top: "conv6_6_1_inter_1"
}
layer {
  name: "conv6_6_1_inter_2"
  type: "Convolution"
  bottom: "conv6_6_1_inter_1"
  top: "conv6_6_1_inter_2"
  param {
    lr_mult: 1
    decay_mult: 1
  }
  convolution_param {
    num_output: 128
    bias_term: true
    group: 1
    weight_filler {
      type: "gaussian"
      std: 0.01
    }
    bias_filler {
      type: "constant"
      value: 0
    }
    pad_h: 1
    pad_w: 1
    kernel_h: 3
    kernel_w: 3
    stride_h: 1
    stride_w: 1
  }
}
layer {
  name: "conv6_6_1_inter_2_relu"
  type: "ReLU"
  bottom: "conv6_6_1_inter_2"
  top: "conv6_6_1_inter_2"
}
layer {
  name: "conv6_6_1_mbox_loc"
  type: "Convolution"
  bottom: "conv6_6_1_inter_2"
  top: "conv6_6_1_mbox_loc"
  param {
    lr_mult: 1
    decay_mult: 1
  }
  param {
    lr_mult: 2
    decay_mult: 0
  }
  convolution_param {
    num_output: 36
    group: 1
    weight_filler {
      type: "xavier"
    }
    bias_filler {
      type: "constant"
      value: 0
    }
    pad_h: 1
    pad_w: 1
    kernel_h: 3
    kernel_w: 3
    stride_h: 1
    stride_w: 1
  }
}
layer {
  name: "conv6_6_1_mbox_loc_perm"
  type: "Permute"
  bottom: "conv6_6_1_mbox_loc"
  top: "conv6_6_1_mbox_loc_perm"
  permute_param {
    order: 0
    order: 2
    order: 3
    order: 1
  }
}
layer {
  name: "conv6_6_1_mbox_loc_flat"
  type: "Flatten"
  bottom: "conv6_6_1_mbox_loc_perm"
  top: "conv6_6_1_mbox_loc_flat"
  flatten_param {
    axis: 1
  }
}
layer {
  name: "conv6_6_1_mbox_conf"
  type: "Convolution"
  bottom: "conv6_6_1_inter_2"
  top: "conv6_6_1_mbox_conf"
  param {
    lr_mult: 1
    decay_mult: 1
  }
  param {
    lr_mult: 2
    decay_mult: 0
  }
  convolution_param {
    num_output: 18
    group: 1
    weight_filler {
      type: "xavier"
    }
    bias_filler {
      type: "constant"
      value: 0
    }
    pad_h: 1
    pad_w: 1
    kernel_h: 3
    kernel_w: 3
    stride_h: 1
    stride_w: 1
  }
}
layer {
  name: "conv6_6_1_mbox_conf_perm"
  type: "Permute"
  bottom: "conv6_6_1_mbox_conf"
  top: "conv6_6_1_mbox_conf_perm"
  permute_param {
    order: 0
    order: 2
    order: 3
    order: 1
  }
}
layer {
  name: "conv6_6_1_mbox_conf_flat"
  type: "Flatten"
  bottom: "conv6_6_1_mbox_conf_perm"
  top: "conv6_6_1_mbox_conf_flat"
  flatten_param {
    axis: 1
  }
}
layer {
  name: "conv6_6_1_mbox_priorbox"
  type: "PriorBox"
  bottom: "conv6_6_1_inter_2"
  bottom: "data"
  top: "conv6_6_1_mbox_priorbox"
  prior_box_param {
    flip: true
    clip: true
    variance: 0.1
    variance: 0.1
    variance: 0.2
    variance: 0.2
    pro_width: 0.5
    pro_width: 0.25
    pro_width: 0.35355338
    pro_width: 0.65
    pro_width: 0.325
    pro_width: 0.4596194
    pro_width: 0.8
    pro_width: 0.56568545
    pro_width: 0.95
    pro_height: 0.5
    pro_height: 1
    pro_height: 0.70710677
    pro_height: 0.65
    pro_height: 1
    pro_height: 0.91923881
    pro_height: 0.8
    pro_height: 1
    pro_height: 0.95
  }
}
layer {
  name: "mbox_1_loc"
  type: "Concat"
  bottom: "conv4_5_1_mbox_loc_flat"
  bottom: "conv5_5_1_mbox_loc_flat"
  bottom: "conv6_6_1_mbox_loc_flat"
  top: "mbox_1_loc"
  concat_param {
    axis: 1
  }
}
layer {
  name: "mbox_1_conf"
  type: "Concat"
  bottom: "conv4_5_1_mbox_conf_flat"
  bottom: "conv5_5_1_mbox_conf_flat"
  bottom: "conv6_6_1_mbox_conf_flat"
  top: "mbox_1_conf"
  concat_param {
    axis: 1
  }
}
layer {
  name: "mbox_1_priorbox"
  type: "Concat"
  bottom: "conv4_5_1_mbox_priorbox"
  bottom: "conv5_5_1_mbox_priorbox"
  bottom: "conv6_6_1_mbox_priorbox"
  top: "mbox_1_priorbox"
  concat_param {
    axis: 2
  }
}
layer {
  name: "mbox_1_conf_reshape"
  type: "Reshape"
  bottom: "mbox_1_conf"
  top: "mbox_1_conf_reshape"
  reshape_param {
    shape {
      dim: 0
      dim: -1
      dim: 2
    }
  }
}
layer {
  name: "mbox_1_conf_softmax"
  type: "Softmax"
  bottom: "mbox_1_conf_reshape"
  top: "mbox_1_conf_softmax"
  softmax_param {
    axis: 2
  }
}
layer {
  name: "mbox_1_conf_flatten"
  type: "Flatten"
  bottom: "mbox_1_conf_softmax"
  top: "mbox_1_conf_flatten"
  flatten_param {
    axis: 1
  }
}
layer {
  name: "detection_out_1"
  type: "DetOut"
  bottom: "mbox_1_loc"
  bottom: "mbox_1_conf_flatten"
  bottom: "mbox_1_priorbox"
  top: "detection_out_1"
  include {
    phase: TEST
  }
  detection_output_param {
    num_classes: 2
    share_location: true
    background_label_id: 0
    code_type: CENTER_SIZE
    variance_encoded_in_target: false
    conf_threshold: 0.9
    nms_threshold: 0.45
    size_threshold: 0.0001
    top_k: 200
    alias_id: 0
    target_labels: 0
  }
}
layer {
  name: "conv4_5_2_inter_1"
  type: "Convolution"
  bottom: "conv4_5"
  top: "conv4_5_2_inter_1"
  param {
    lr_mult: 1
    decay_mult: 1
  }
  convolution_param {
    num_output: 32
    bias_term: true
    group: 1
    weight_filler {
      type: "gaussian"
      std: 0.01
    }
    bias_filler {
      type: "constant"
      value: 0
    }
    pad_h: 0
    pad_w: 0
    kernel_h: 1
    kernel_w: 1
    stride_h: 1
    stride_w: 1
    engine: CAFFE
  }
}
layer {
  name: "conv4_5_2_inter_1_relu"
  type: "ReLU"
  bottom: "conv4_5_2_inter_1"
  top: "conv4_5_2_inter_1"
}
layer {
  name: "conv4_5_2_inter_2"
  type: "Convolution"
  bottom: "conv4_5_2_inter_1"
  top: "conv4_5_2_inter_2"
  param {
    lr_mult: 1
    decay_mult: 1
  }
  convolution_param {
    num_output: 64
    bias_term: true
    group: 1
    weight_filler {
      type: "gaussian"
      std: 0.01
    }
    bias_filler {
      type: "constant"
      value: 0
    }
    pad_h: 1
    pad_w: 1
    kernel_h: 3
    kernel_w: 3
    stride_h: 1
    stride_w: 1
  }
}
layer {
  name: "conv4_5_2_inter_2_relu"
  type: "ReLU"
  bottom: "conv4_5_2_inter_2"
  top: "conv4_5_2_inter_2"
}
layer {
  name: "conv4_5_2_mbox_loc"
  type: "Convolution"
  bottom: "conv4_5_2_inter_2"
  top: "conv4_5_2_mbox_loc"
  param {
    lr_mult: 1
    decay_mult: 1
  }
  param {
    lr_mult: 2
    decay_mult: 0
  }
  convolution_param {
    num_output: 16
    group: 1
    weight_filler {
      type: "xavier"
    }
    bias_filler {
      type: "constant"
      value: 0
    }
    pad_h: 1
    pad_w: 1
    kernel_h: 3
    kernel_w: 3
    stride_h: 1
    stride_w: 1
  }
}
layer {
  name: "conv4_5_2_mbox_loc_perm"
  type: "Permute"
  bottom: "conv4_5_2_mbox_loc"
  top: "conv4_5_2_mbox_loc_perm"
  permute_param {
    order: 0
    order: 2
    order: 3
    order: 1
  }
}
layer {
  name: "conv4_5_2_mbox_loc_flat"
  type: "Flatten"
  bottom: "conv4_5_2_mbox_loc_perm"
  top: "conv4_5_2_mbox_loc_flat"
  flatten_param {
    axis: 1
  }
}
layer {
  name: "conv4_5_2_mbox_conf"
  type: "Convolution"
  bottom: "conv4_5_2_inter_2"
  top: "conv4_5_2_mbox_conf"
  param {
    lr_mult: 1
    decay_mult: 1
  }
  param {
    lr_mult: 2
    decay_mult: 0
  }
  convolution_param {
    num_output: 6
    group: 1
    weight_filler {
      type: "xavier"
    }
    bias_filler {
      type: "constant"
      value: 0
    }
    pad_h: 1
    pad_w: 1
    kernel_h: 3
    kernel_w: 3
    stride_h: 1
    stride_w: 1
  }
}
layer {
  name: "conv4_5_2_mbox_conf_perm"
  type: "Permute"
  bottom: "conv4_5_2_mbox_conf"
  top: "conv4_5_2_mbox_conf_perm"
  permute_param {
    order: 0
    order: 2
    order: 3
    order: 1
  }
}
layer {
  name: "conv4_5_2_mbox_conf_flat"
  type: "Flatten"
  bottom: "conv4_5_2_mbox_conf_perm"
  top: "conv4_5_2_mbox_conf_flat"
  flatten_param {
    axis: 1
  }
}
layer {
  name: "conv4_5_2_mbox_priorbox"
  type: "PriorBox"
  bottom: "conv4_5_2_inter_2"
  bottom: "data"
  top: "conv4_5_2_mbox_priorbox"
  prior_box_param {
    flip: true
    clip: true
    variance: 0.1
    variance: 0.1
    variance: 0.2
    variance: 0.2
    pro_width: 0.035355341
    pro_width: 0.070710681
    pro_height: 0.070710681
    pro_height: 0.14142136
  }
}
layer {
  name: "conv5_5_2_inter_1"
  type: "Convolution"
  bottom: "conv5_5"
  top: "conv5_5_2_inter_1"
  param {
    lr_mult: 1
    decay_mult: 1
  }
  convolution_param {
    num_output: 32
    bias_term: true
    group: 1
    weight_filler {
      type: "gaussian"
      std: 0.01
    }
    bias_filler {
      type: "constant"
      value: 0
    }
    pad_h: 0
    pad_w: 0
    kernel_h: 1
    kernel_w: 1
    stride_h: 1
    stride_w: 1
    engine: CAFFE
  }
}
layer {
  name: "conv5_5_2_inter_1_relu"
  type: "ReLU"
  bottom: "conv5_5_2_inter_1"
  top: "conv5_5_2_inter_1"
}
layer {
  name: "conv5_5_2_inter_2"
  type: "Convolution"
  bottom: "conv5_5_2_inter_1"
  top: "conv5_5_2_inter_2"
  param {
    lr_mult: 1
    decay_mult: 1
  }
  convolution_param {
    num_output: 64
    bias_term: true
    group: 1
    weight_filler {
      type: "gaussian"
      std: 0.01
    }
    bias_filler {
      type: "constant"
      value: 0
    }
    pad_h: 1
    pad_w: 1
    kernel_h: 3
    kernel_w: 3
    stride_h: 1
    stride_w: 1
  }
}
layer {
  name: "conv5_5_2_inter_2_relu"
  type: "ReLU"
  bottom: "conv5_5_2_inter_2"
  top: "conv5_5_2_inter_2"
}
layer {
  name: "conv5_5_2_mbox_loc"
  type: "Convolution"
  bottom: "conv5_5_2_inter_2"
  top: "conv5_5_2_mbox_loc"
  param {
    lr_mult: 1
    decay_mult: 1
  }
  param {
    lr_mult: 2
    decay_mult: 0
  }
  convolution_param {
    num_output: 72
    group: 1
    weight_filler {
      type: "xavier"
    }
    bias_filler {
      type: "constant"
      value: 0
    }
    pad_h: 1
    pad_w: 1
    kernel_h: 3
    kernel_w: 3
    stride_h: 1
    stride_w: 1
  }
}
layer {
  name: "conv5_5_2_mbox_loc_perm"
  type: "Permute"
  bottom: "conv5_5_2_mbox_loc"
  top: "conv5_5_2_mbox_loc_perm"
  permute_param {
    order: 0
    order: 2
    order: 3
    order: 1
  }
}
layer {
  name: "conv5_5_2_mbox_loc_flat"
  type: "Flatten"
  bottom: "conv5_5_2_mbox_loc_perm"
  top: "conv5_5_2_mbox_loc_flat"
  flatten_param {
    axis: 1
  }
}
layer {
  name: "conv5_5_2_mbox_conf"
  type: "Convolution"
  bottom: "conv5_5_2_inter_2"
  top: "conv5_5_2_mbox_conf"
  param {
    lr_mult: 1
    decay_mult: 1
  }
  param {
    lr_mult: 2
    decay_mult: 0
  }
  convolution_param {
    num_output: 27
    group: 1
    weight_filler {
      type: "xavier"
    }
    bias_filler {
      type: "constant"
      value: 0
    }
    pad_h: 1
    pad_w: 1
    kernel_h: 3
    kernel_w: 3
    stride_h: 1
    stride_w: 1
  }
}
layer {
  name: "conv5_5_2_mbox_conf_perm"
  type: "Permute"
  bottom: "conv5_5_2_mbox_conf"
  top: "conv5_5_2_mbox_conf_perm"
  permute_param {
    order: 0
    order: 2
    order: 3
    order: 1
  }
}
layer {
  name: "conv5_5_2_mbox_conf_flat"
  type: "Flatten"
  bottom: "conv5_5_2_mbox_conf_perm"
  top: "conv5_5_2_mbox_conf_flat"
  flatten_param {
    axis: 1
  }
}
layer {
  name: "conv5_5_2_mbox_priorbox"
  type: "PriorBox"
  bottom: "conv5_5_2_inter_2"
  bottom: "data"
  top: "conv5_5_2_mbox_priorbox"
  prior_box_param {
    flip: true
    clip: true
    variance: 0.1
    variance: 0.1
    variance: 0.2
    variance: 0.2
    pro_width: 0.15
    pro_width: 0.10606602
    pro_width: 0.075
    pro_width: 0.25
    pro_width: 0.17677669
    pro_width: 0.125
    pro_width: 0.35
    pro_width: 0.24748737
    pro_width: 0
I0425 14:11:35.640408 30982 layer_factory.hpp:77] Creating layer input
I0425 14:11:35.640916 30982 net.cpp:119] Creating Layer input
I0425 14:11:35.640934 30982 net.cpp:536] input -> data
I0425 14:11:35.950217 30982 net.cpp:201] Setting up input
I0425 14:11:35.950265 30982 net.cpp:212] Top shape: 1 3 288 512 (442368)
I0425 14:11:35.950275 30982 net.cpp:223] Memory required for data: 1769472
I0425 14:11:35.950289 30982 layer_factory.hpp:77] Creating layer data_input_0_split
I0425 14:11:35.950310 30982 net.cpp:119] Creating Layer data_input_0_split
I0425 14:11:35.950320 30982 net.cpp:562] data_input_0_split <- data
I0425 14:11:35.950333 30982 net.cpp:536] data_input_0_split -> data_input_0_split_0
I0425 14:11:35.950348 30982 net.cpp:536] data_input_0_split -> data_input_0_split_1
I0425 14:11:35.950361 30982 net.cpp:536] data_input_0_split -> data_input_0_split_2
I0425 14:11:35.950371 30982 net.cpp:536] data_input_0_split -> data_input_0_split_3
I0425 14:11:35.950381 30982 net.cpp:536] data_input_0_split -> data_input_0_split_4
I0425 14:11:35.950390 30982 net.cpp:536] data_input_0_split -> data_input_0_split_5
I0425 14:11:35.950399 30982 net.cpp:536] data_input_0_split -> data_input_0_split_6
I0425 14:11:35.950469 30982 net.cpp:201] Setting up data_input_0_split
I0425 14:11:35.950480 30982 net.cpp:212] Top shape: 1 3 288 512 (442368)
I0425 14:11:35.950487 30982 net.cpp:212] Top shape: 1 3 288 512 (442368)
I0425 14:11:35.950495 30982 net.cpp:212] Top shape: 1 3 288 512 (442368)
I0425 14:11:35.950502 30982 net.cpp:212] Top shape: 1 3 288 512 (442368)
I0425 14:11:35.950510 30982 net.cpp:212] Top shape: 1 3 288 512 (442368)
I0425 14:11:35.950516 30982 net.cpp:212] Top shape: 1 3 288 512 (442368)
I0425 14:11:35.950525 30982 net.cpp:212] Top shape: 1 3 288 512 (442368)
I0425 14:11:35.950531 30982 net.cpp:223] Memory required for data: 14155776
I0425 14:11:35.950536 30982 layer_factory.hpp:77] Creating layer conv1
I0425 14:11:35.970324 30982 net.cpp:119] Creating Layer conv1
I0425 14:11:35.970348 30982 net.cpp:562] conv1 <- data_input_0_split_0
I0425 14:11:35.970366 30982 net.cpp:536] conv1 -> conv1
I0425 14:11:38.427299 30982 net.cpp:201] Setting up conv1
I0425 14:11:38.427340 30982 net.cpp:212] Top shape: 1 32 144 256 (1179648)
I0425 14:11:38.427350 30982 net.cpp:223] Memory required for data: 18874368
I0425 14:11:38.427371 30982 layer_factory.hpp:77] Creating layer conv1_relu
I0425 14:11:38.427393 30982 net.cpp:119] Creating Layer conv1_relu
I0425 14:11:38.427402 30982 net.cpp:562] conv1_relu <- conv1
I0425 14:11:38.427413 30982 net.cpp:522] conv1_relu -> conv1 (in-place)
I0425 14:11:38.467649 30982 net.cpp:201] Setting up conv1_relu
I0425 14:11:38.467695 30982 net.cpp:212] Top shape: 1 32 144 256 (1179648)
I0425 14:11:38.467703 30982 net.cpp:223] Memory required for data: 23592960
I0425 14:11:38.467715 30982 layer_factory.hpp:77] Creating layer conv2
I0425 14:11:38.467742 30982 net.cpp:119] Creating Layer conv2
I0425 14:11:38.467752 30982 net.cpp:562] conv2 <- conv1
I0425 14:11:38.467774 30982 net.cpp:536] conv2 -> conv2
I0425 14:11:38.470204 30982 net.cpp:201] Setting up conv2
I0425 14:11:38.470227 30982 net.cpp:212] Top shape: 1 32 72 128 (294912)
I0425 14:11:38.470233 30982 net.cpp:223] Memory required for data: 24772608
I0425 14:11:38.470252 30982 layer_factory.hpp:77] Creating layer conv2_relu
I0425 14:11:38.470264 30982 net.cpp:119] Creating Layer conv2_relu
I0425 14:11:38.470273 30982 net.cpp:562] conv2_relu <- conv2
I0425 14:11:38.470283 30982 net.cpp:522] conv2_relu -> conv2 (in-place)
I0425 14:11:38.470432 30982 net.cpp:201] Setting up conv2_relu
I0425 14:11:38.470445 30982 net.cpp:212] Top shape: 1 32 72 128 (294912)
I0425 14:11:38.470451 30982 net.cpp:223] Memory required for data: 25952256
I0425 14:11:38.470458 30982 layer_factory.hpp:77] Creating layer conv3_1
I0425 14:11:38.470472 30982 net.cpp:119] Creating Layer conv3_1
I0425 14:11:38.470479 30982 net.cpp:562] conv3_1 <- conv2
I0425 14:11:38.470489 30982 net.cpp:536] conv3_1 -> conv3_1
I0425 14:11:38.471985 30982 net.cpp:201] Setting up conv3_1
I0425 14:11:38.472005 30982 net.cpp:212] Top shape: 1 64 72 128 (589824)
I0425 14:11:38.472012 30982 net.cpp:223] Memory required for data: 28311552
I0425 14:11:38.472024 30982 layer_factory.hpp:77] Creating layer conv3_1_relu
I0425 14:11:38.472036 30982 net.cpp:119] Creating Layer conv3_1_relu
I0425 14:11:38.472048 30982 net.cpp:562] conv3_1_relu <- conv3_1
I0425 14:11:38.472062 30982 net.cpp:522] conv3_1_relu -> conv3_1 (in-place)
I0425 14:11:38.472581 30982 net.cpp:201] Setting up conv3_1_relu
I0425 14:11:38.472601 30982 net.cpp:212] Top shape: 1 64 72 128 (589824)
I0425 14:11:38.472609 30982 net.cpp:223] Memory required for data: 30670848
I0425 14:11:38.472615 30982 layer_factory.hpp:77] Creating layer conv3_2
I0425 14:11:38.472631 30982 net.cpp:119] Creating Layer conv3_2
I0425 14:11:38.472640 30982 net.cpp:562] conv3_2 <- conv3_1
I0425 14:11:38.472649 30982 net.cpp:536] conv3_2 -> conv3_2
I0425 14:11:38.473479 30982 net.cpp:201] Setting up conv3_2
I0425 14:11:38.473498 30982 net.cpp:212] Top shape: 1 32 72 128 (294912)
I0425 14:11:38.473505 30982 net.cpp:223] Memory required for data: 31850496
I0425 14:11:38.473515 30982 layer_factory.hpp:77] Creating layer conv3_2_relu
I0425 14:11:38.473527 30982 net.cpp:119] Creating Layer conv3_2_relu
I0425 14:11:38.473534 30982 net.cpp:562] conv3_2_relu <- conv3_2
I0425 14:11:38.473542 30982 net.cpp:522] conv3_2_relu -> conv3_2 (in-place)
I0425 14:11:38.473691 30982 net.cpp:201] Setting up conv3_2_relu
I0425 14:11:38.473706 30982 net.cpp:212] Top shape: 1 32 72 128 (294912)
I0425 14:11:38.473712 30982 net.cpp:223] Memory required for data: 33030144
I0425 14:11:38.473718 30982 layer_factory.hpp:77] Creating layer conv3_3
I0425 14:11:38.473732 30982 net.cpp:119] Creating Layer conv3_3
I0425 14:11:38.473739 30982 net.cpp:562] conv3_3 <- conv3_2
I0425 14:11:38.473752 30982 net.cpp:536] conv3_3 -> conv3_3
I0425 14:11:38.475646 30982 net.cpp:201] Setting up conv3_3
I0425 14:11:38.475666 30982 net.cpp:212] Top shape: 1 128 36 64 (294912)
I0425 14:11:38.475672 30982 net.cpp:223] Memory required for data: 34209792
I0425 14:11:38.475687 30982 layer_factory.hpp:77] Creating layer conv3_3_relu
I0425 14:11:38.475697 30982 net.cpp:119] Creating Layer conv3_3_relu
I0425 14:11:38.475706 30982 net.cpp:562] conv3_3_relu <- conv3_3
I0425 14:11:38.475715 30982 net.cpp:522] conv3_3_relu -> conv3_3 (in-place)
I0425 14:11:38.475860 30982 net.cpp:201] Setting up conv3_3_relu
I0425 14:11:38.475875 30982 net.cpp:212] Top shape: 1 128 36 64 (294912)
I0425 14:11:38.475881 30982 net.cpp:223] Memory required for data: 35389440
I0425 14:11:38.475889 30982 layer_factory.hpp:77] Creating layer conv4_1
I0425 14:11:38.475901 30982 net.cpp:119] Creating Layer conv4_1
I0425 14:11:38.475909 30982 net.cpp:562] conv4_1 <- conv3_3
I0425 14:11:38.475919 30982 net.cpp:536] conv4_1 -> conv4_1
I0425 14:11:38.481557 30982 net.cpp:201] Setting up conv4_1
I0425 14:11:38.481577 30982 net.cpp:212] Top shape: 1 128 36 64 (294912)
I0425 14:11:38.481585 30982 net.cpp:223] Memory required for data: 36569088
I0425 14:11:38.481593 30982 layer_factory.hpp:77] Creating layer conv4_1_relu
I0425 14:11:38.481606 30982 net.cpp:119] Creating Layer conv4_1_relu
I0425 14:11:38.481613 30982 net.cpp:562] conv4_1_relu <- conv4_1
I0425 14:11:38.481622 30982 net.cpp:522] conv4_1_relu -> conv4_1 (in-place)
I0425 14:11:38.481765 30982 net.cpp:201] Setting up conv4_1_relu
I0425 14:11:38.481778 30982 net.cpp:212] Top shape: 1 128 36 64 (294912)
I0425 14:11:38.481784 30982 net.cpp:223] Memory required for data: 37748736
I0425 14:11:38.481791 30982 layer_factory.hpp:77] Creating layer conv4_2
I0425 14:11:38.481806 30982 net.cpp:119] Creating Layer conv4_2
I0425 14:11:38.481813 30982 net.cpp:562] conv4_2 <- conv4_1
I0425 14:11:38.481825 30982 net.cpp:536] conv4_2 -> conv4_2
I0425 14:11:38.482215 30982 net.cpp:201] Setting up conv4_2
I0425 14:11:38.482228 30982 net.cpp:212] Top shape: 1 64 36 64 (147456)
I0425 14:11:38.482234 30982 net.cpp:223] Memory required for data: 38338560
I0425 14:11:38.482244 30982 layer_factory.hpp:77] Creating layer conv4_2_relu
I0425 14:11:38.482254 30982 net.cpp:119] Creating Layer conv4_2_relu
I0425 14:11:38.482259 30982 net.cpp:562] conv4_2_relu <- conv4_2
I0425 14:11:38.482267 30982 net.cpp:522] conv4_2_relu -> conv4_2 (in-place)
I0425 14:11:38.482769 30982 net.cpp:201] Setting up conv4_2_relu
I0425 14:11:38.482786 30982 net.cpp:212] Top shape: 1 64 36 64 (147456)
I0425 14:11:38.482792 30982 net.cpp:223] Memory required for data: 38928384
I0425 14:11:38.482800 30982 layer_factory.hpp:77] Creating layer conv4_3
I0425 14:11:38.482816 30982 net.cpp:119] Creating Layer conv4_3
I0425 14:11:38.482825 30982 net.cpp:562] conv4_3 <- conv4_2
I0425 14:11:38.482834 30982 net.cpp:536] conv4_3 -> conv4_3
I0425 14:11:38.485659 30982 net.cpp:201] Setting up conv4_3
I0425 14:11:38.485677 30982 net.cpp:212] Top shape: 1 128 36 64 (294912)
I0425 14:11:38.485684 30982 net.cpp:223] Memory required for data: 40108032
I0425 14:11:38.485693 30982 layer_factory.hpp:77] Creating layer conv4_3_relu
I0425 14:11:38.485707 30982 net.cpp:119] Creating Layer conv4_3_relu
I0425 14:11:38.485715 30982 net.cpp:562] conv4_3_relu <- conv4_3
I0425 14:11:38.485724 30982 net.cpp:522] conv4_3_relu -> conv4_3 (in-place)
I0425 14:11:38.486224 30982 net.cpp:201] Setting up conv4_3_relu
I0425 14:11:38.486241 30982 net.cpp:212] Top shape: 1 128 36 64 (294912)
I0425 14:11:38.486248 30982 net.cpp:223] Memory required for data: 41287680
I0425 14:11:38.486254 30982 layer_factory.hpp:77] Creating layer conv4_4
I0425 14:11:38.486269 30982 net.cpp:119] Creating Layer conv4_4
I0425 14:11:38.486279 30982 net.cpp:562] conv4_4 <- conv4_3
I0425 14:11:38.486290 30982 net.cpp:536] conv4_4 -> conv4_4
I0425 14:11:38.486687 30982 net.cpp:201] Setting up conv4_4
I0425 14:11:38.486701 30982 net.cpp:212] Top shape: 1 64 36 64 (147456)
I0425 14:11:38.486707 30982 net.cpp:223] Memory required for data: 41877504
I0425 14:11:38.486722 30982 layer_factory.hpp:77] Creating layer conv4_4_relu
I0425 14:11:38.486733 30982 net.cpp:119] Creating Layer conv4_4_relu
I0425 14:11:38.486740 30982 net.cpp:562] conv4_4_relu <- conv4_4
I0425 14:11:38.486748 30982 net.cpp:522] conv4_4_relu -> conv4_4 (in-place)
I0425 14:11:38.486888 30982 net.cpp:201] Setting up conv4_4_relu
I0425 14:11:38.486901 30982 net.cpp:212] Top shape: 1 64 36 64 (147456)
I0425 14:11:38.486907 30982 net.cpp:223] Memory required for data: 42467328
I0425 14:11:38.486915 30982 layer_factory.hpp:77] Creating layer conv4_5
I0425 14:11:38.486929 30982 net.cpp:119] Creating Layer conv4_5
I0425 14:11:38.486937 30982 net.cpp:562] conv4_5 <- conv4_4
I0425 14:11:38.486948 30982 net.cpp:536] conv4_5 -> conv4_5
I0425 14:11:38.492143 30982 net.cpp:201] Setting up conv4_5
I0425 14:11:38.492166 30982 net.cpp:212] Top shape: 1 256 36 64 (589824)
I0425 14:11:38.492173 30982 net.cpp:223] Memory required for data: 44826624
I0425 14:11:38.492184 30982 layer_factory.hpp:77] Creating layer conv4_5_relu
I0425 14:11:38.492195 30982 net.cpp:119] Creating Layer conv4_5_relu
I0425 14:11:38.492203 30982 net.cpp:562] conv4_5_relu <- conv4_5
I0425 14:11:38.492214 30982 net.cpp:522] conv4_5_relu -> conv4_5 (in-place)
I0425 14:11:38.492363 30982 net.cpp:201] Setting up conv4_5_relu
I0425 14:11:38.492377 30982 net.cpp:212] Top shape: 1 256 36 64 (589824)
I0425 14:11:38.492383 30982 net.cpp:223] Memory required for data: 47185920
I0425 14:11:38.492389 30982 layer_factory.hpp:77] Creating layer conv4_5_conv4_5_relu_0_split
I0425 14:11:38.492401 30982 net.cpp:119] Creating Layer conv4_5_conv4_5_relu_0_split
I0425 14:11:38.492408 30982 net.cpp:562] conv4_5_conv4_5_relu_0_split <- conv4_5
I0425 14:11:38.492417 30982 net.cpp:536] conv4_5_conv4_5_relu_0_split -> conv4_5_conv4_5_relu_0_split_0
I0425 14:11:38.492430 30982 net.cpp:536] conv4_5_conv4_5_relu_0_split -> conv4_5_conv4_5_relu_0_split_1
I0425 14:11:38.492441 30982 net.cpp:536] conv4_5_conv4_5_relu_0_split -> conv4_5_conv4_5_relu_0_split_2
I0425 14:11:38.492492 30982 net.cpp:201] Setting up conv4_5_conv4_5_relu_0_split
I0425 14:11:38.492503 30982 net.cpp:212] Top shape: 1 256 36 64 (589824)
I0425 14:11:38.492511 30982 net.cpp:212] Top shape: 1 256 36 64 (589824)
I0425 14:11:38.492518 30982 net.cpp:212] Top shape: 1 256 36 64 (589824)
I0425 14:11:38.492524 30982 net.cpp:223] Memory required for data: 54263808
I0425 14:11:38.492530 30982 layer_factory.hpp:77] Creating layer pool4
I0425 14:11:38.492540 30982 net.cpp:119] Creating Layer pool4
I0425 14:11:38.492548 30982 net.cpp:562] pool4 <- conv4_5_conv4_5_relu_0_split_0
I0425 14:11:38.492558 30982 net.cpp:536] pool4 -> pool4
I0425 14:11:38.492610 30982 net.cpp:201] Setting up pool4
I0425 14:11:38.492620 30982 net.cpp:212] Top shape: 1 256 18 32 (147456)
I0425 14:11:38.492627 30982 net.cpp:223] Memory required for data: 54853632
I0425 14:11:38.492635 30982 layer_factory.hpp:77] Creating layer conv5_1
I0425 14:11:38.492647 30982 net.cpp:119] Creating Layer conv5_1
I0425 14:11:38.492655 30982 net.cpp:562] conv5_1 <- pool4
I0425 14:11:38.492666 30982 net.cpp:536] conv5_1 -> conv5_1
I0425 14:11:38.510116 30982 net.cpp:201] Setting up conv5_1
I0425 14:11:38.510139 30982 net.cpp:212] Top shape: 1 256 18 32 (147456)
I0425 14:11:38.510148 30982 net.cpp:223] Memory required for data: 55443456
I0425 14:11:38.510160 30982 layer_factory.hpp:77] Creating layer conv5_1_relu
I0425 14:11:38.510170 30982 net.cpp:119] Creating Layer conv5_1_relu
I0425 14:11:38.510179 30982 net.cpp:562] conv5_1_relu <- conv5_1
I0425 14:11:38.510190 30982 net.cpp:522] conv5_1_relu -> conv5_1 (in-place)
I0425 14:11:38.510346 30982 net.cpp:201] Setting up conv5_1_relu
I0425 14:11:38.510360 30982 net.cpp:212] Top shape: 1 256 18 32 (147456)
I0425 14:11:38.510367 30982 net.cpp:223] Memory required for data: 56033280
I0425 14:11:38.510373 30982 layer_factory.hpp:77] Creating layer conv5_2
I0425 14:11:38.510388 30982 net.cpp:119] Creating Layer conv5_2
I0425 14:11:38.510396 30982 net.cpp:562] conv5_2 <- conv5_1
I0425 14:11:38.510408 30982 net.cpp:536] conv5_2 -> conv5_2
I0425 14:11:38.511448 30982 net.cpp:201] Setting up conv5_2
I0425 14:11:38.511463 30982 net.cpp:212] Top shape: 1 128 18 32 (73728)
I0425 14:11:38.511471 30982 net.cpp:223] Memory required for data: 56328192
I0425 14:11:38.511478 30982 layer_factory.hpp:77] Creating layer conv5_2_relu
I0425 14:11:38.511489 30982 net.cpp:119] Creating Layer conv5_2_relu
I0425 14:11:38.511497 30982 net.cpp:562] conv5_2_relu <- conv5_2
I0425 14:11:38.511507 30982 net.cpp:522] conv5_2_relu -> conv5_2 (in-place)
I0425 14:11:38.512017 30982 net.cpp:201] Setting up conv5_2_relu
I0425 14:11:38.512035 30982 net.cpp:212] Top shape: 1 128 18 32 (73728)
I0425 14:11:38.512042 30982 net.cpp:223] Memory required for data: 56623104
I0425 14:11:38.512048 30982 layer_factory.hpp:77] Creating layer conv5_3
I0425 14:11:38.512063 30982 net.cpp:119] Creating Layer conv5_3
I0425 14:11:38.512071 30982 net.cpp:562] conv5_3 <- conv5_2
I0425 14:11:38.512080 30982 net.cpp:536] conv5_3 -> conv5_3
I0425 14:11:38.549517 30982 net.cpp:201] Setting up conv5_3
I0425 14:11:38.549547 30982 net.cpp:212] Top shape: 1 256 18 32 (147456)
I0425 14:11:38.549554 30982 net.cpp:223] Memory required for data: 57212928
I0425 14:11:38.549568 30982 layer_factory.hpp:77] Creating layer conv5_3_relu
I0425 14:11:38.549585 30982 net.cpp:119] Creating Layer conv5_3_relu
I0425 14:11:38.549597 30982 net.cpp:562] conv5_3_relu <- conv5_3
I0425 14:11:38.549607 30982 net.cpp:522] conv5_3_relu -> conv5_3 (in-place)
I0425 14:11:38.550145 30982 net.cpp:201] Setting up conv5_3_relu
I0425 14:11:38.550164 30982 net.cpp:212] Top shape: 1 256 18 32 (147456)
I0425 14:11:38.550171 30982 net.cpp:223] Memory required for data: 57802752
I0425 14:11:38.550179 30982 layer_factory.hpp:77] Creating layer conv5_4
I0425 14:11:38.550194 30982 net.cpp:119] Creating Layer conv5_4
I0425 14:11:38.550201 30982 net.cpp:562] conv5_4 <- conv5_3
I0425 14:11:38.550215 30982 net.cpp:536] conv5_4 -> conv5_4
I0425 14:11:38.551246 30982 net.cpp:201] Setting up conv5_4
I0425 14:11:38.551259 30982 net.cpp:212] Top shape: 1 128 18 32 (73728)
I0425 14:11:38.551266 30982 net.cpp:223] Memory required for data: 58097664
I0425 14:11:38.551277 30982 layer_factory.hpp:77] Creating layer conv5_4_relu
I0425 14:11:38.551291 30982 net.cpp:119] Creating Layer conv5_4_relu
I0425 14:11:38.551302 30982 net.cpp:562] conv5_4_relu <- conv5_4
I0425 14:11:38.551313 30982 net.cpp:522] conv5_4_relu -> conv5_4 (in-place)
I0425 14:11:38.551463 30982 net.cpp:201] Setting up conv5_4_relu
I0425 14:11:38.551476 30982 net.cpp:212] Top shape: 1 128 18 32 (73728)
I0425 14:11:38.551483 30982 net.cpp:223] Memory required for data: 58392576
I0425 14:11:38.551489 30982 layer_factory.hpp:77] Creating layer conv5_5
I0425 14:11:38.551507 30982 net.cpp:119] Creating Layer conv5_5
I0425 14:11:38.551514 30982 net.cpp:562] conv5_5 <- conv5_4
I0425 14:11:38.551527 30982 net.cpp:536] conv5_5 -> conv5_5
I0425 14:11:38.561020 30982 net.cpp:201] Setting up conv5_5
I0425 14:11:38.561040 30982 net.cpp:212] Top shape: 1 256 18 32 (147456)
I0425 14:11:38.561048 30982 net.cpp:223] Memory required for data: 58982400
I0425 14:11:38.561056 30982 layer_factory.hpp:77] Creating layer conv5_5_relu
I0425 14:11:38.561069 30982 net.cpp:119] Creating Layer conv5_5_relu
I0425 14:11:38.561077 30982 net.cpp:562] conv5_5_relu <- conv5_5
I0425 14:11:38.561086 30982 net.cpp:522] conv5_5_relu -> conv5_5 (in-place)
I0425 14:11:38.561239 30982 net.cpp:201] Setting up conv5_5_relu
I0425 14:11:38.561254 30982 net.cpp:212] Top shape: 1 256 18 32 (147456)
I0425 14:11:38.561260 30982 net.cpp:223] Memory required for data: 59572224
I0425 14:11:38.561266 30982 layer_factory.hpp:77] Creating layer conv5_5_conv5_5_relu_0_split
I0425 14:11:38.561276 30982 net.cpp:119] Creating Layer conv5_5_conv5_5_relu_0_split
I0425 14:11:38.561283 30982 net.cpp:562] conv5_5_conv5_5_relu_0_split <- conv5_5
I0425 14:11:38.561295 30982 net.cpp:536] conv5_5_conv5_5_relu_0_split -> conv5_5_conv5_5_relu_0_split_0
I0425 14:11:38.561305 30982 net.cpp:536] conv5_5_conv5_5_relu_0_split -> conv5_5_conv5_5_relu_0_split_1
I0425 14:11:38.561316 30982 net.cpp:536] conv5_5_conv5_5_relu_0_split -> conv5_5_conv5_5_relu_0_split_2
I0425 14:11:38.561365 30982 net.cpp:201] Setting up conv5_5_conv5_5_relu_0_split
I0425 14:11:38.561378 30982 net.cpp:212] Top shape: 1 256 18 32 (147456)
I0425 14:11:38.561386 30982 net.cpp:212] Top shape: 1 256 18 32 (147456)
I0425 14:11:38.561394 30982 net.cpp:212] Top shape: 1 256 18 32 (147456)
I0425 14:11:38.561405 30982 net.cpp:223] Memory required for data: 61341696
I0425 14:11:38.561417 30982 layer_factory.hpp:77] Creating layer pool5
I0425 14:11:38.561429 30982 net.cpp:119] Creating Layer pool5
I0425 14:11:38.561436 30982 net.cpp:562] pool5 <- conv5_5_conv5_5_relu_0_split_0
I0425 14:11:38.561447 30982 net.cpp:536] pool5 -> pool5
I0425 14:11:38.561486 30982 net.cpp:201] Setting up pool5
I0425 14:11:38.561496 30982 net.cpp:212] Top shape: 1 256 9 16 (36864)
I0425 14:11:38.561502 30982 net.cpp:223] Memory required for data: 61489152
I0425 14:11:38.561509 30982 layer_factory.hpp:77] Creating layer conv6_1
I0425 14:11:38.561523 30982 net.cpp:119] Creating Layer conv6_1
I0425 14:11:38.561532 30982 net.cpp:562] conv6_1 <- pool5
I0425 14:11:38.561542 30982 net.cpp:536] conv6_1 -> conv6_1
I0425 14:11:38.571138 30982 net.cpp:201] Setting up conv6_1
I0425 14:11:38.571164 30982 net.cpp:212] Top shape: 1 128 9 16 (18432)
I0425 14:11:38.571171 30982 net.cpp:223] Memory required for data: 61562880
I0425 14:11:38.571183 30982 layer_factory.hpp:77] Creating layer conv6_1_relu
I0425 14:11:38.571197 30982 net.cpp:119] Creating Layer conv6_1_relu
I0425 14:11:38.571205 30982 net.cpp:562] conv6_1_relu <- conv6_1
I0425 14:11:38.571216 30982 net.cpp:522] conv6_1_relu -> conv6_1 (in-place)
I0425 14:11:38.571368 30982 net.cpp:201] Setting up conv6_1_relu
I0425 14:11:38.571382 30982 net.cpp:212] Top shape: 1 128 9 16 (18432)
I0425 14:11:38.571388 30982 net.cpp:223] Memory required for data: 61636608
I0425 14:11:38.571395 30982 layer_factory.hpp:77] Creating layer conv6_2
I0425 14:11:38.571409 30982 net.cpp:119] Creating Layer conv6_2
I0425 14:11:38.571418 30982 net.cpp:562] conv6_2 <- conv6_1
I0425 14:11:38.571429 30982 net.cpp:536] conv6_2 -> conv6_2
I0425 14:11:38.576619 30982 net.cpp:201] Setting up conv6_2
I0425 14:11:38.576639 30982 net.cpp:212] Top shape: 1 128 9 16 (18432)
I0425 14:11:38.576647 30982 net.cpp:223] Memory required for data: 61710336
I0425 14:11:38.576665 30982 layer_factory.hpp:77] Creating layer conv6_2_relu
I0425 14:11:38.576678 30982 net.cpp:119] Creating Layer conv6_2_relu
I0425 14:11:38.576685 30982 net.cpp:562] conv6_2_relu <- conv6_2
I0425 14:11:38.576694 30982 net.cpp:522] conv6_2_relu -> conv6_2 (in-place)
I0425 14:11:38.576848 30982 net.cpp:201] Setting up conv6_2_relu
I0425 14:11:38.576864 30982 net.cpp:212] Top shape: 1 128 9 16 (18432)
I0425 14:11:38.576870 30982 net.cpp:223] Memory required for data: 61784064
I0425 14:11:38.576876 30982 layer_factory.hpp:77] Creating layer conv6_3
I0425 14:11:38.576891 30982 net.cpp:119] Creating Layer conv6_3
I0425 14:11:38.576900 30982 net.cpp:562] conv6_3 <- conv6_2
I0425 14:11:38.576910 30982 net.cpp:536] conv6_3 -> conv6_3
I0425 14:11:38.582231 30982 net.cpp:201] Setting up conv6_3
I0425 14:11:38.582257 30982 net.cpp:212] Top shape: 1 128 9 16 (18432)
I0425 14:11:38.582264 30982 net.cpp:223] Memory required for data: 61857792
I0425 14:11:38.582279 30982 layer_factory.hpp:77] Creating layer conv6_3_relu
I0425 14:11:38.582291 30982 net.cpp:119] Creating Layer conv6_3_relu
I0425 14:11:38.582301 30982 net.cpp:562] conv6_3_relu <- conv6_3
I0425 14:11:38.582311 30982 net.cpp:522] conv6_3_relu -> conv6_3 (in-place)
I0425 14:11:38.582831 30982 net.cpp:201] Setting up conv6_3_relu
I0425 14:11:38.582850 30982 net.cpp:212] Top shape: 1 128 9 16 (18432)
I0425 14:11:38.582856 30982 net.cpp:223] Memory required for data: 61931520
I0425 14:11:38.582864 30982 layer_factory.hpp:77] Creating layer conv6_4
I0425 14:11:38.582880 30982 net.cpp:119] Creating Layer conv6_4
I0425 14:11:38.582890 30982 net.cpp:562] conv6_4 <- conv6_3
I0425 14:11:38.582901 30982 net.cpp:536] conv6_4 -> conv6_4
I0425 14:11:38.588014 30982 net.cpp:201] Setting up conv6_4
I0425 14:11:38.588032 30982 net.cpp:212] Top shape: 1 128 9 16 (18432)
I0425 14:11:38.588040 30982 net.cpp:223] Memory required for data: 62005248
I0425 14:11:38.588052 30982 layer_factory.hpp:77] Creating layer conv6_4_relu
I0425 14:11:38.588063 30982 net.cpp:119] Creating Layer conv6_4_relu
I0425 14:11:38.588070 30982 net.cpp:562] conv6_4_relu <- conv6_4
I0425 14:11:38.588080 30982 net.cpp:522] conv6_4_relu -> conv6_4 (in-place)
I0425 14:11:38.588237 30982 net.cpp:201] Setting up conv6_4_relu
I0425 14:11:38.588251 30982 net.cpp:212] Top shape: 1 128 9 16 (18432)
I0425 14:11:38.588258 30982 net.cpp:223] Memory required for data: 62078976
I0425 14:11:38.588264 30982 layer_factory.hpp:77] Creating layer conv6_5
I0425 14:11:38.588279 30982 net.cpp:119] Creating Layer conv6_5
I0425 14:11:38.588289 30982 net.cpp:562] conv6_5 <- conv6_4
I0425 14:11:38.588299 30982 net.cpp:536] conv6_5 -> conv6_5
I0425 14:11:38.593757 30982 net.cpp:201] Setting up conv6_5
I0425 14:11:38.593776 30982 net.cpp:212] Top shape: 1 128 9 16 (18432)
I0425 14:11:38.593783 30982 net.cpp:223] Memory required for data: 62152704
I0425 14:11:38.593793 30982 layer_factory.hpp:77] Creating layer conv6_5_relu
I0425 14:11:38.593803 30982 net.cpp:119] Creating Layer conv6_5_relu
I0425 14:11:38.593811 30982 net.cpp:562] conv6_5_relu <- conv6_5
I0425 14:11:38.593822 30982 net.cpp:522] conv6_5_relu -> conv6_5 (in-place)
I0425 14:11:38.593969 30982 net.cpp:201] Setting up conv6_5_relu
I0425 14:11:38.593982 30982 net.cpp:212] Top shape: 1 128 9 16 (18432)
I0425 14:11:38.593988 30982 net.cpp:223] Memory required for data: 62226432
I0425 14:11:38.593994 30982 layer_factory.hpp:77] Creating layer conv6_6
I0425 14:11:38.594008 30982 net.cpp:119] Creating Layer conv6_6
I0425 14:11:38.594017 30982 net.cpp:562] conv6_6 <- conv6_5
I0425 14:11:38.594025 30982 net.cpp:536] conv6_6 -> conv6_6
I0425 14:11:38.599635 30982 net.cpp:201] Setting up conv6_6
I0425 14:11:38.599655 30982 net.cpp:212] Top shape: 1 128 9 16 (18432)
I0425 14:11:38.599663 30982 net.cpp:223] Memory required for data: 62300160
I0425 14:11:38.599671 30982 layer_factory.hpp:77] Creating layer conv6_6_relu
I0425 14:11:38.599683 30982 net.cpp:119] Creating Layer conv6_6_relu
I0425 14:11:38.599691 30982 net.cpp:562] conv6_6_relu <- conv6_6
I0425 14:11:38.599700 30982 net.cpp:522] conv6_6_relu -> conv6_6 (in-place)
I0425 14:11:38.599858 30982 net.cpp:201] Setting up conv6_6_relu
I0425 14:11:38.599871 30982 net.cpp:212] Top shape: 1 128 9 16 (18432)
I0425 14:11:38.599879 30982 net.cpp:223] Memory required for data: 62373888
I0425 14:11:38.599884 30982 layer_factory.hpp:77] Creating layer conv6_6_conv6_6_relu_0_split
I0425 14:11:38.599896 30982 net.cpp:119] Creating Layer conv6_6_conv6_6_relu_0_split
I0425 14:11:38.599903 30982 net.cpp:562] conv6_6_conv6_6_relu_0_split <- conv6_6
I0425 14:11:38.599912 30982 net.cpp:536] conv6_6_conv6_6_relu_0_split -> conv6_6_conv6_6_relu_0_split_0
I0425 14:11:38.599925 30982 net.cpp:536] conv6_6_conv6_6_relu_0_split -> conv6_6_conv6_6_relu_0_split_1
I0425 14:11:38.599964 30982 net.cpp:201] Setting up conv6_6_conv6_6_relu_0_split
I0425 14:11:38.599975 30982 net.cpp:212] Top shape: 1 128 9 16 (18432)
I0425 14:11:38.599982 30982 net.cpp:212] Top shape: 1 128 9 16 (18432)
I0425 14:11:38.599988 30982 net.cpp:223] Memory required for data: 62521344
I0425 14:11:38.599994 30982 layer_factory.hpp:77] Creating layer conv4_5_1_inter_1
I0425 14:11:38.600008 30982 net.cpp:119] Creating Layer conv4_5_1_inter_1
I0425 14:11:38.600015 30982 net.cpp:562] conv4_5_1_inter_1 <- conv4_5_conv4_5_relu_0_split_1
I0425 14:11:38.600028 30982 net.cpp:536] conv4_5_1_inter_1 -> conv4_5_1_inter_1
I0425 14:11:38.600644 30982 net.cpp:201] Setting up conv4_5_1_inter_1
I0425 14:11:38.600657 30982 net.cpp:212] Top shape: 1 64 36 64 (147456)
I0425 14:11:38.600664 30982 net.cpp:223] Memory required for data: 63111168
I0425 14:11:38.600672 30982 layer_factory.hpp:77] Creating layer conv4_5_1_inter_1_relu
I0425 14:11:38.600683 30982 net.cpp:119] Creating Layer conv4_5_1_inter_1_relu
I0425 14:11:38.600692 30982 net.cpp:562] conv4_5_1_inter_1_relu <- conv4_5_1_inter_1
I0425 14:11:38.600704 30982 net.cpp:522] conv4_5_1_inter_1_relu -> conv4_5_1_inter_1 (in-place)
I0425 14:11:38.600849 30982 net.cpp:201] Setting up conv4_5_1_inter_1_relu
I0425 14:11:38.600863 30982 net.cpp:212] Top shape: 1 64 36 64 (147456)
I0425 14:11:38.600869 30982 net.cpp:223] Memory required for data: 63700992
I0425 14:11:38.600877 30982 layer_factory.hpp:77] Creating layer conv4_5_1_inter_2
I0425 14:11:38.600888 30982 net.cpp:119] Creating Layer conv4_5_1_inter_2
I0425 14:11:38.600896 30982 net.cpp:562] conv4_5_1_inter_2 <- conv4_5_1_inter_1
I0425 14:11:38.600906 30982 net.cpp:536] conv4_5_1_inter_2 -> conv4_5_1_inter_2
I0425 14:11:38.604106 30982 net.cpp:201] Setting up conv4_5_1_inter_2
I0425 14:11:38.604126 30982 net.cpp:212] Top shape: 1 128 36 64 (294912)
I0425 14:11:38.604133 30982 net.cpp:223] Memory required for data: 64880640
I0425 14:11:38.604143 30982 layer_factory.hpp:77] Creating layer conv4_5_1_inter_2_relu
I0425 14:11:38.604153 30982 net.cpp:119] Creating Layer conv4_5_1_inter_2_relu
I0425 14:11:38.604161 30982 net.cpp:562] conv4_5_1_inter_2_relu <- conv4_5_1_inter_2
I0425 14:11:38.604171 30982 net.cpp:522] conv4_5_1_inter_2_relu -> conv4_5_1_inter_2 (in-place)
I0425 14:11:38.604687 30982 net.cpp:201] Setting up conv4_5_1_inter_2_relu
I0425 14:11:38.604706 30982 net.cpp:212] Top shape: 1 128 36 64 (294912)
I0425 14:11:38.604712 30982 net.cpp:223] Memory required for data: 66060288
I0425 14:11:38.604719 30982 layer_factory.hpp:77] Creating layer conv4_5_1_inter_2_conv4_5_1_inter_2_relu_0_split
I0425 14:11:38.604729 30982 net.cpp:119] Creating Layer conv4_5_1_inter_2_conv4_5_1_inter_2_relu_0_split
I0425 14:11:38.604737 30982 net.cpp:562] conv4_5_1_inter_2_conv4_5_1_inter_2_relu_0_split <- conv4_5_1_inter_2
I0425 14:11:38.604748 30982 net.cpp:536] conv4_5_1_inter_2_conv4_5_1_inter_2_relu_0_split -> conv4_5_1_inter_2_conv4_5_1_inter_2_relu_0_split_0
I0425 14:11:38.604759 30982 net.cpp:536] conv4_5_1_inter_2_conv4_5_1_inter_2_relu_0_split -> conv4_5_1_inter_2_conv4_5_1_inter_2_relu_0_split_1
I0425 14:11:38.604769 30982 net.cpp:536] conv4_5_1_inter_2_conv4_5_1_inter_2_relu_0_split -> conv4_5_1_inter_2_conv4_5_1_inter_2_relu_0_split_2
I0425 14:11:38.604818 30982 net.cpp:201] Setting up conv4_5_1_inter_2_conv4_5_1_inter_2_relu_0_split
I0425 14:11:38.604830 30982 net.cpp:212] Top shape: 1 128 36 64 (294912)
I0425 14:11:38.604837 30982 net.cpp:212] Top shape: 1 128 36 64 (294912)
I0425 14:11:38.604843 30982 net.cpp:212] Top shape: 1 128 36 64 (294912)
I0425 14:11:38.604851 30982 net.cpp:223] Memory required for data: 69599232
I0425 14:11:38.604856 30982 layer_factory.hpp:77] Creating layer conv4_5_1_mbox_loc
I0425 14:11:38.604869 30982 net.cpp:119] Creating Layer conv4_5_1_mbox_loc
I0425 14:11:38.604877 30982 net.cpp:562] conv4_5_1_mbox_loc <- conv4_5_1_inter_2_conv4_5_1_inter_2_relu_0_split_0
I0425 14:11:38.604888 30982 net.cpp:536] conv4_5_1_mbox_loc -> conv4_5_1_mbox_loc
I0425 14:11:38.605674 30982 net.cpp:201] Setting up conv4_5_1_mbox_loc
I0425 14:11:38.605690 30982 net.cpp:212] Top shape: 1 24 36 64 (55296)
I0425 14:11:38.605696 30982 net.cpp:223] Memory required for data: 69820416
I0425 14:11:38.605705 30982 layer_factory.hpp:77] Creating layer conv4_5_1_mbox_loc_perm
I0425 14:11:38.606227 30982 net.cpp:119] Creating Layer conv4_5_1_mbox_loc_perm
I0425 14:11:38.606245 30982 net.cpp:562] conv4_5_1_mbox_loc_perm <- conv4_5_1_mbox_loc
I0425 14:11:38.606257 30982 net.cpp:536] conv4_5_1_mbox_loc_perm -> conv4_5_1_mbox_loc_perm
I0425 14:11:38.606778 30982 net.cpp:201] Setting up conv4_5_1_mbox_loc_perm
I0425 14:11:38.606801 30982 net.cpp:212] Top shape: 1 36 64 24 (55296)
I0425 14:11:38.606807 30982 net.cpp:223] Memory required for data: 70041600
I0425 14:11:38.606813 30982 layer_factory.hpp:77] Creating layer conv4_5_1_mbox_loc_flat
I0425 14:11:38.606828 30982 net.cpp:119] Creating Layer conv4_5_1_mbox_loc_flat
I0425 14:11:38.606837 30982 net.cpp:562] conv4_5_1_mbox_loc_flat <- conv4_5_1_mbox_loc_perm
I0425 14:11:38.606848 30982 net.cpp:536] conv4_5_1_mbox_loc_flat -> conv4_5_1_mbox_loc_flat
I0425 14:11:38.606878 30982 net.cpp:201] Setting up conv4_5_1_mbox_loc_flat
I0425 14:11:38.606887 30982 net.cpp:212] Top shape: 1 55296 (55296)
I0425 14:11:38.606894 30982 net.cpp:223] Memory required for data: 70262784
I0425 14:11:38.606901 30982 layer_factory.hpp:77] Creating layer conv4_5_1_mbox_conf
I0425 14:11:38.606914 30982 net.cpp:119] Creating Layer conv4_5_1_mbox_conf
I0425 14:11:38.606923 30982 net.cpp:562] conv4_5_1_mbox_conf <- conv4_5_1_inter_2_conv4_5_1_inter_2_relu_0_split_1
I0425 14:11:38.606933 30982 net.cpp:536] conv4_5_1_mbox_conf -> conv4_5_1_mbox_conf
I0425 14:11:38.608023 30982 net.cpp:201] Setting up conv4_5_1_mbox_conf
I0425 14:11:38.608043 30982 net.cpp:212] Top shape: 1 12 36 64 (27648)
I0425 14:11:38.608050 30982 net.cpp:223] Memory required for data: 70373376
I0425 14:11:38.608060 30982 layer_factory.hpp:77] Creating layer conv4_5_1_mbox_conf_perm
I0425 14:11:38.608072 30982 net.cpp:119] Creating Layer conv4_5_1_mbox_conf_perm
I0425 14:11:38.608081 30982 net.cpp:562] conv4_5_1_mbox_conf_perm <- conv4_5_1_mbox_conf
I0425 14:11:38.608091 30982 net.cpp:536] conv4_5_1_mbox_conf_perm -> conv4_5_1_mbox_conf_perm
I0425 14:11:38.608180 30982 net.cpp:201] Setting up conv4_5_1_mbox_conf_perm
I0425 14:11:38.608191 30982 net.cpp:212] Top shape: 1 36 64 12 (27648)
I0425 14:11:38.608196 30982 net.cpp:223] Memory required for data: 70483968
I0425 14:11:38.608203 30982 layer_factory.hpp:77] Creating layer conv4_5_1_mbox_conf_flat
I0425 14:11:38.608213 30982 net.cpp:119] Creating Layer conv4_5_1_mbox_conf_flat
I0425 14:11:38.608220 30982 net.cpp:562] conv4_5_1_mbox_conf_flat <- conv4_5_1_mbox_conf_perm
I0425 14:11:38.608232 30982 net.cpp:536] conv4_5_1_mbox_conf_flat -> conv4_5_1_mbox_conf_flat
I0425 14:11:38.608256 30982 net.cpp:201] Setting up conv4_5_1_mbox_conf_flat
I0425 14:11:38.608274 30982 net.cpp:212] Top shape: 1 27648 (27648)
I0425 14:11:38.608281 30982 net.cpp:223] Memory required for data: 70594560
I0425 14:11:38.608289 30982 layer_factory.hpp:77] Creating layer conv4_5_1_mbox_priorbox
I0425 14:11:38.608656 30982 net.cpp:119] Creating Layer conv4_5_1_mbox_priorbox
I0425 14:11:38.608675 30982 net.cpp:562] conv4_5_1_mbox_priorbox <- conv4_5_1_inter_2_conv4_5_1_inter_2_relu_0_split_2
I0425 14:11:38.608685 30982 net.cpp:562] conv4_5_1_mbox_priorbox <- data_input_0_split_1
I0425 14:11:38.608696 30982 net.cpp:536] conv4_5_1_mbox_priorbox -> conv4_5_1_mbox_priorbox
I0425 14:11:38.608736 30982 net.cpp:201] Setting up conv4_5_1_mbox_priorbox
I0425 14:11:38.608747 30982 net.cpp:212] Top shape: 1 2 55296 (110592)
I0425 14:11:38.608754 30982 net.cpp:223] Memory required for data: 71036928
I0425 14:11:38.608762 30982 layer_factory.hpp:77] Creating layer conv5_5_1_inter_1
I0425 14:11:38.608774 30982 net.cpp:119] Creating Layer conv5_5_1_inter_1
I0425 14:11:38.608783 30982 net.cpp:562] conv5_5_1_inter_1 <- conv5_5_conv5_5_relu_0_split_1
I0425 14:11:38.608793 30982 net.cpp:536] conv5_5_1_inter_1 -> conv5_5_1_inter_1
I0425 14:11:38.609411 30982 net.cpp:201] Setting up conv5_5_1_inter_1
I0425 14:11:38.609423 30982 net.cpp:212] Top shape: 1 64 18 32 (36864)
I0425 14:11:38.609431 30982 net.cpp:223] Memory required for data: 71184384
I0425 14:11:38.609441 30982 layer_factory.hpp:77] Creating layer conv5_5_1_inter_1_relu
I0425 14:11:38.609452 30982 net.cpp:119] Creating Layer conv5_5_1_inter_1_relu
I0425 14:11:38.609459 30982 net.cpp:562] conv5_5_1_inter_1_relu <- conv5_5_1_inter_1
I0425 14:11:38.609469 30982 net.cpp:522] conv5_5_1_inter_1_relu -> conv5_5_1_inter_1 (in-place)
I0425 14:11:38.610005 30982 net.cpp:201] Setting up conv5_5_1_inter_1_relu
I0425 14:11:38.610025 30982 net.cpp:212] Top shape: 1 64 18 32 (36864)
I0425 14:11:38.610033 30982 net.cpp:223] Memory required for data: 71331840
I0425 14:11:38.610040 30982 layer_factory.hpp:77] Creating layer conv5_5_1_inter_2
I0425 14:11:38.610056 30982 net.cpp:119] Creating Layer conv5_5_1_inter_2
I0425 14:11:38.610065 30982 net.cpp:562] conv5_5_1_inter_2 <- conv5_5_1_inter_1
I0425 14:11:38.610076 30982 net.cpp:536] conv5_5_1_inter_2 -> conv5_5_1_inter_2
I0425 14:11:38.614401 30982 net.cpp:201] Setting up conv5_5_1_inter_2
I0425 14:11:38.614428 30982 net.cpp:212] Top shape: 1 128 18 32 (73728)
I0425 14:11:38.614434 30982 net.cpp:223] Memory required for data: 71626752
I0425 14:11:38.614445 30982 layer_factory.hpp:77] Creating layer conv5_5_1_inter_2_relu
I0425 14:11:38.614467 30982 net.cpp:119] Creating Layer conv5_5_1_inter_2_relu
I0425 14:11:38.614476 30982 net.cpp:562] conv5_5_1_inter_2_relu <- conv5_5_1_inter_2
I0425 14:11:38.614486 30982 net.cpp:522] conv5_5_1_inter_2_relu -> conv5_5_1_inter_2 (in-place)
I0425 14:11:38.614643 30982 net.cpp:201] Setting up conv5_5_1_inter_2_relu
I0425 14:11:38.614656 30982 net.cpp:212] Top shape: 1 128 18 32 (73728)
I0425 14:11:38.614662 30982 net.cpp:223] Memory required for data: 71921664
I0425 14:11:38.614670 30982 layer_factory.hpp:77] Creating layer conv5_5_1_inter_2_conv5_5_1_inter_2_relu_0_split
I0425 14:11:38.614681 30982 net.cpp:119] Creating Layer conv5_5_1_inter_2_conv5_5_1_inter_2_relu_0_split
I0425 14:11:38.614688 30982 net.cpp:562] conv5_5_1_inter_2_conv5_5_1_inter_2_relu_0_split <- conv5_5_1_inter_2
I0425 14:11:38.614697 30982 net.cpp:536] conv5_5_1_inter_2_conv5_5_1_inter_2_relu_0_split -> conv5_5_1_inter_2_conv5_5_1_inter_2_relu_0_split_0
I0425 14:11:38.614709 30982 net.cpp:536] conv5_5_1_inter_2_conv5_5_1_inter_2_relu_0_split -> conv5_5_1_inter_2_conv5_5_1_inter_2_relu_0_split_1
I0425 14:11:38.614720 30982 net.cpp:536] conv5_5_1_inter_2_conv5_5_1_inter_2_relu_0_split -> conv5_5_1_inter_2_conv5_5_1_inter_2_relu_0_split_2
I0425 14:11:38.614771 30982 net.cpp:201] Setting up conv5_5_1_inter_2_conv5_5_1_inter_2_relu_0_split
I0425 14:11:38.614783 30982 net.cpp:212] Top shape: 1 128 18 32 (73728)
I0425 14:11:38.614789 30982 net.cpp:212] Top shape: 1 128 18 32 (73728)
I0425 14:11:38.614797 30982 net.cpp:212] Top shape: 1 128 18 32 (73728)
I0425 14:11:38.614802 30982 net.cpp:223] Memory required for data: 72806400
I0425 14:11:38.614809 30982 layer_factory.hpp:77] Creating layer conv5_5_1_mbox_loc
I0425 14:11:38.614821 30982 net.cpp:119] Creating Layer conv5_5_1_mbox_loc
I0425 14:11:38.614830 30982 net.cpp:562] conv5_5_1_mbox_loc <- conv5_5_1_inter_2_conv5_5_1_inter_2_relu_0_split_0
I0425 14:11:38.614840 30982 net.cpp:536] conv5_5_1_mbox_loc -> conv5_5_1_mbox_loc
I0425 14:11:38.616588 30982 net.cpp:201] Setting up conv5_5_1_mbox_loc
I0425 14:11:38.616608 30982 net.cpp:212] Top shape: 1 36 18 32 (20736)
I0425 14:11:38.616616 30982 net.cpp:223] Memory required for data: 72889344
I0425 14:11:38.616626 30982 layer_factory.hpp:77] Creating layer conv5_5_1_mbox_loc_perm
I0425 14:11:38.616641 30982 net.cpp:119] Creating Layer conv5_5_1_mbox_loc_perm
I0425 14:11:38.616649 30982 net.cpp:562] conv5_5_1_mbox_loc_perm <- conv5_5_1_mbox_loc
I0425 14:11:38.616660 30982 net.cpp:536] conv5_5_1_mbox_loc_perm -> conv5_5_1_mbox_loc_perm
I0425 14:11:38.616753 30982 net.cpp:201] Setting up conv5_5_1_mbox_loc_perm
I0425 14:11:38.616765 30982 net.cpp:212] Top shape: 1 18 32 36 (20736)
I0425 14:11:38.616770 30982 net.cpp:223] Memory required for data: 72972288
I0425 14:11:38.616777 30982 layer_factory.hpp:77] Creating layer conv5_5_1_mbox_loc_flat
I0425 14:11:38.616788 30982 net.cpp:119] Creating Layer conv5_5_1_mbox_loc_flat
I0425 14:11:38.616796 30982 net.cpp:562] conv5_5_1_mbox_loc_flat <- conv5_5_1_mbox_loc_perm
I0425 14:11:38.616806 30982 net.cpp:536] conv5_5_1_mbox_loc_flat -> conv5_5_1_mbox_loc_flat
I0425 14:11:38.616830 30982 net.cpp:201] Setting up conv5_5_1_mbox_loc_flat
I0425 14:11:38.616842 30982 net.cpp:212] Top shape: 1 20736 (20736)
I0425 14:11:38.616847 30982 net.cpp:223] Memory required for data: 73055232
I0425 14:11:38.616854 30982 layer_factory.hpp:77] Creating layer conv5_5_1_mbox_conf
I0425 14:11:38.616868 30982 net.cpp:119] Creating Layer conv5_5_1_mbox_conf
I0425 14:11:38.616875 30982 net.cpp:562] conv5_5_1_mbox_conf <- conv5_5_1_inter_2_conv5_5_1_inter_2_relu_0_split_1
I0425 14:11:38.616886 30982 net.cpp:536] conv5_5_1_mbox_conf -> conv5_5_1_mbox_conf
I0425 14:11:38.618050 30982 net.cpp:201] Setting up conv5_5_1_mbox_conf
I0425 14:11:38.618072 30982 net.cpp:212] Top shape: 1 18 18 32 (10368)
I0425 14:11:38.618078 30982 net.cpp:223] Memory required for data: 73096704
I0425 14:11:38.618088 30982 layer_factory.hpp:77] Creating layer conv5_5_1_mbox_conf_perm
I0425 14:11:38.618099 30982 net.cpp:119] Creating Layer conv5_5_1_mbox_conf_perm
I0425 14:11:38.618108 30982 net.cpp:562] conv5_5_1_mbox_conf_perm <- conv5_5_1_mbox_conf
I0425 14:11:38.618119 30982 net.cpp:536] conv5_5_1_mbox_conf_perm -> conv5_5_1_mbox_conf_perm
I0425 14:11:38.618207 30982 net.cpp:201] Setting up conv5_5_1_mbox_conf_perm
I0425 14:11:38.618219 30982 net.cpp:212] Top shape: 1 18 32 18 (10368)
I0425 14:11:38.618227 30982 net.cpp:223] Memory required for data: 73138176
I0425 14:11:38.618232 30982 layer_factory.hpp:77] Creating layer conv5_5_1_mbox_conf_flat
I0425 14:11:38.618242 30982 net.cpp:119] Creating Layer conv5_5_1_mbox_conf_flat
I0425 14:11:38.618250 30982 net.cpp:562] conv5_5_1_mbox_conf_flat <- conv5_5_1_mbox_conf_perm
I0425 14:11:38.618259 30982 net.cpp:536] conv5_5_1_mbox_conf_flat -> conv5_5_1_mbox_conf_flat
I0425 14:11:38.618285 30982 net.cpp:201] Setting up conv5_5_1_mbox_conf_flat
I0425 14:11:38.618295 30982 net.cpp:212] Top shape: 1 10368 (10368)
I0425 14:11:38.618302 30982 net.cpp:223] Memory required for data: 73179648
I0425 14:11:38.618309 30982 layer_factory.hpp:77] Creating layer conv5_5_1_mbox_priorbox
I0425 14:11:38.618324 30982 net.cpp:119] Creating Layer conv5_5_1_mbox_priorbox
I0425 14:11:38.618335 30982 net.cpp:562] conv5_5_1_mbox_priorbox <- conv5_5_1_inter_2_conv5_5_1_inter_2_relu_0_split_2
I0425 14:11:38.618347 30982 net.cpp:562] conv5_5_1_mbox_priorbox <- data_input_0_split_2
I0425 14:11:38.618358 30982 net.cpp:536] conv5_5_1_mbox_priorbox -> conv5_5_1_mbox_priorbox
I0425 14:11:38.618388 30982 net.cpp:201] Setting up conv5_5_1_mbox_priorbox
I0425 14:11:38.618398 30982 net.cpp:212] Top shape: 1 2 20736 (41472)
I0425 14:11:38.618405 30982 net.cpp:223] Memory required for data: 73345536
I0425 14:11:38.618412 30982 layer_factory.hpp:77] Creating layer conv6_6_1_inter_1
I0425 14:11:38.618425 30982 net.cpp:119] Creating Layer conv6_6_1_inter_1
I0425 14:11:38.618433 30982 net.cpp:562] conv6_6_1_inter_1 <- conv6_6_conv6_6_relu_0_split_0
I0425 14:11:38.618444 30982 net.cpp:536] conv6_6_1_inter_1 -> conv6_6_1_inter_1
I0425 14:11:38.618847 30982 net.cpp:201] Setting up conv6_6_1_inter_1
I0425 14:11:38.618860 30982 net.cpp:212] Top shape: 1 64 9 16 (9216)
I0425 14:11:38.618867 30982 net.cpp:223] Memory required for data: 73382400
I0425 14:11:38.618877 30982 layer_factory.hpp:77] Creating layer conv6_6_1_inter_1_relu
I0425 14:11:38.618886 30982 net.cpp:119] Creating Layer conv6_6_1_inter_1_relu
I0425 14:11:38.618894 30982 net.cpp:562] conv6_6_1_inter_1_relu <- conv6_6_1_inter_1
I0425 14:11:38.618904 30982 net.cpp:522] conv6_6_1_inter_1_relu -> conv6_6_1_inter_1 (in-place)
I0425 14:11:38.619055 30982 net.cpp:201] Setting up conv6_6_1_inter_1_relu
I0425 14:11:38.619068 30982 net.cpp:212] Top shape: 1 64 9 16 (9216)
I0425 14:11:38.619076 30982 net.cpp:223] Memory required for data: 73419264
I0425 14:11:38.619082 30982 layer_factory.hpp:77] Creating layer conv6_6_1_inter_2
I0425 14:11:38.619096 30982 net.cpp:119] Creating Layer conv6_6_1_inter_2
I0425 14:11:38.619104 30982 net.cpp:562] conv6_6_1_inter_2 <- conv6_6_1_inter_1
I0425 14:11:38.619113 30982 net.cpp:536] conv6_6_1_inter_2 -> conv6_6_1_inter_2
I0425 14:11:38.622354 30982 net.cpp:201] Setting up conv6_6_1_inter_2
I0425 14:11:38.622375 30982 net.cpp:212] Top shape: 1 128 9 16 (18432)
I0425 14:11:38.622382 30982 net.cpp:223] Memory required for data: 73492992
I0425 14:11:38.622392 30982 layer_factory.hpp:77] Creating layer conv6_6_1_inter_2_relu
I0425 14:11:38.622403 30982 net.cpp:119] Creating Layer conv6_6_1_inter_2_relu
I0425 14:11:38.622412 30982 net.cpp:562] conv6_6_1_inter_2_relu <- conv6_6_1_inter_2
I0425 14:11:38.622421 30982 net.cpp:522] conv6_6_1_inter_2_relu -> conv6_6_1_inter_2 (in-place)
I0425 14:11:38.622575 30982 net.cpp:201] Setting up conv6_6_1_inter_2_relu
I0425 14:11:38.622588 30982 net.cpp:212] Top shape: 1 128 9 16 (18432)
I0425 14:11:38.622596 30982 net.cpp:223] Memory required for data: 73566720
I0425 14:11:38.622602 30982 layer_factory.hpp:77] Creating layer conv6_6_1_inter_2_conv6_6_1_inter_2_relu_0_split
I0425 14:11:38.622613 30982 net.cpp:119] Creating Layer conv6_6_1_inter_2_conv6_6_1_inter_2_relu_0_split
I0425 14:11:38.622622 30982 net.cpp:562] conv6_6_1_inter_2_conv6_6_1_inter_2_relu_0_split <- conv6_6_1_inter_2
I0425 14:11:38.622632 30982 net.cpp:536] conv6_6_1_inter_2_conv6_6_1_inter_2_relu_0_split -> conv6_6_1_inter_2_conv6_6_1_inter_2_relu_0_split_0
I0425 14:11:38.622644 30982 net.cpp:536] conv6_6_1_inter_2_conv6_6_1_inter_2_relu_0_split -> conv6_6_1_inter_2_conv6_6_1_inter_2_relu_0_split_1
I0425 14:11:38.622654 30982 net.cpp:536] conv6_6_1_inter_2_conv6_6_1_inter_2_relu_0_split -> conv6_6_1_inter_2_conv6_6_1_inter_2_relu_0_split_2
I0425 14:11:38.622706 30982 net.cpp:201] Setting up conv6_6_1_inter_2_conv6_6_1_inter_2_relu_0_split
I0425 14:11:38.622717 30982 net.cpp:212] Top shape: 1 128 9 16 (18432)
I0425 14:11:38.622725 30982 net.cpp:212] Top shape: 1 128 9 16 (18432)
I0425 14:11:38.622733 30982 net.cpp:212] Top shape: 1 128 9 16 (18432)
I0425 14:11:38.622740 30982 net.cpp:223] Memory required for data: 73787904
I0425 14:11:38.622746 30982 layer_factory.hpp:77] Creating layer conv6_6_1_mbox_loc
I0425 14:11:38.622759 30982 net.cpp:119] Creating Layer conv6_6_1_mbox_loc
I0425 14:11:38.622768 30982 net.cpp:562] conv6_6_1_mbox_loc <- conv6_6_1_inter_2_conv6_6_1_inter_2_relu_0_split_0
I0425 14:11:38.622778 30982 net.cpp:536] conv6_6_1_mbox_loc -> conv6_6_1_mbox_loc
I0425 14:11:38.624403 30982 net.cpp:201] Setting up conv6_6_1_mbox_loc
I0425 14:11:38.624423 30982 net.cpp:212] Top shape: 1 36 9 16 (5184)
I0425 14:11:38.624430 30982 net.cpp:223] Memory required for data: 73808640
I0425 14:11:38.624440 30982 layer_factory.hpp:77] Creating layer conv6_6_1_mbox_loc_perm
I0425 14:11:38.624451 30982 net.cpp:119] Creating Layer conv6_6_1_mbox_loc_perm
I0425 14:11:38.624461 30982 net.cpp:562] conv6_6_1_mbox_loc_perm <- conv6_6_1_mbox_loc
I0425 14:11:38.624471 30982 net.cpp:536] conv6_6_1_mbox_loc_perm -> conv6_6_1_mbox_loc_perm
I0425 14:11:38.624567 30982 net.cpp:201] Setting up conv6_6_1_mbox_loc_perm
I0425 14:11:38.624579 30982 net.cpp:212] Top shape: 1 9 16 36 (5184)
I0425 14:11:38.624586 30982 net.cpp:223] Memory required for data: 73829376
I0425 14:11:38.624593 30982 layer_factory.hpp:77] Creating layer conv6_6_1_mbox_loc_flat
I0425 14:11:38.624603 30982 net.cpp:119] Creating Layer conv6_6_1_mbox_loc_flat
I0425 14:11:38.624611 30982 net.cpp:562] conv6_6_1_mbox_loc_flat <- conv6_6_1_mbox_loc_perm
I0425 14:11:38.624620 30982 net.cpp:536] conv6_6_1_mbox_loc_flat -> conv6_6_1_mbox_loc_flat
I0425 14:11:38.624647 30982 net.cpp:201] Setting up conv6_6_1_mbox_loc_flat
I0425 14:11:38.624657 30982 net.cpp:212] Top shape: 1 5184 (5184)
I0425 14:11:38.624665 30982 net.cpp:223] Memory required for data: 73850112
I0425 14:11:38.624670 30982 layer_factory.hpp:77] Creating layer conv6_6_1_mbox_conf
I0425 14:11:38.624683 30982 net.cpp:119] Creating Layer conv6_6_1_mbox_conf
I0425 14:11:38.624691 30982 net.cpp:562] conv6_6_1_mbox_conf <- conv6_6_1_inter_2_conv6_6_1_inter_2_relu_0_split_1
I0425 14:11:38.624702 30982 net.cpp:536] conv6_6_1_mbox_conf -> conv6_6_1_mbox_conf
I0425 14:11:38.625840 30982 net.cpp:201] Setting up conv6_6_1_mbox_conf
I0425 14:11:38.625860 30982 net.cpp:212] Top shape: 1 18 9 16 (2592)
I0425 14:11:38.625867 30982 net.cpp:223] Memory required for data: 73860480
I0425 14:11:38.625885 30982 layer_factory.hpp:77] Creating layer conv6_6_1_mbox_conf_perm
I0425 14:11:38.625896 30982 net.cpp:119] Creating Layer conv6_6_1_mbox_conf_perm
I0425 14:11:38.625905 30982 net.cpp:562] conv6_6_1_mbox_conf_perm <- conv6_6_1_mbox_conf
I0425 14:11:38.625913 30982 net.cpp:536] conv6_6_1_mbox_conf_perm -> conv6_6_1_mbox_conf_perm
I0425 14:11:38.626005 30982 net.cpp:201] Setting up conv6_6_1_mbox_conf_perm
I0425 14:11:38.626018 30982 net.cpp:212] Top shape: 1 9 16 18 (2592)
I0425 14:11:38.626024 30982 net.cpp:223] Memory required for data: 73870848
I0425 14:11:38.626029 30982 layer_factory.hpp:77] Creating layer conv6_6_1_mbox_conf_flat
I0425 14:11:38.626039 30982 net.cpp:119] Creating Layer conv6_6_1_mbox_conf_flat
I0425 14:11:38.626047 30982 net.cpp:562] conv6_6_1_mbox_conf_flat <- conv6_6_1_mbox_conf_perm
I0425 14:11:38.626057 30982 net.cpp:536] conv6_6_1_mbox_conf_flat -> conv6_6_1_mbox_conf_flat
I0425 14:11:38.626083 30982 net.cpp:201] Setting up conv6_6_1_mbox_conf_flat
I0425 14:11:38.626094 30982 net.cpp:212] Top shape: 1 2592 (2592)
I0425 14:11:38.626101 30982 net.cpp:223] Memory required for data: 73881216
I0425 14:11:38.626108 30982 layer_factory.hpp:77] Creating layer conv6_6_1_mbox_priorbox
I0425 14:11:38.626117 30982 net.cpp:119] Creating Layer conv6_6_1_mbox_priorbox
I0425 14:11:38.626125 30982 net.cpp:562] conv6_6_1_mbox_priorbox <- conv6_6_1_inter_2_conv6_6_1_inter_2_relu_0_split_2
I0425 14:11:38.626133 30982 net.cpp:562] conv6_6_1_mbox_priorbox <- data_input_0_split_3
I0425 14:11:38.626145 30982 net.cpp:536] conv6_6_1_mbox_priorbox -> conv6_6_1_mbox_priorbox
I0425 14:11:38.626171 30982 net.cpp:201] Setting up conv6_6_1_mbox_priorbox
I0425 14:11:38.626181 30982 net.cpp:212] Top shape: 1 2 5184 (10368)
I0425 14:11:38.626188 30982 net.cpp:223] Memory required for data: 73922688
I0425 14:11:38.626195 30982 layer_factory.hpp:77] Creating layer mbox_1_loc
I0425 14:11:38.626991 30982 net.cpp:119] Creating Layer mbox_1_loc
I0425 14:11:38.627010 30982 net.cpp:562] mbox_1_loc <- conv4_5_1_mbox_loc_flat
I0425 14:11:38.627020 30982 net.cpp:562] mbox_1_loc <- conv5_5_1_mbox_loc_flat
I0425 14:11:38.627028 30982 net.cpp:562] mbox_1_loc <- conv6_6_1_mbox_loc_flat
I0425 14:11:38.627040 30982 net.cpp:536] mbox_1_loc -> mbox_1_loc
I0425 14:11:38.627079 30982 net.cpp:201] Setting up mbox_1_loc
I0425 14:11:38.627091 30982 net.cpp:212] Top shape: 1 81216 (81216)
I0425 14:11:38.627099 30982 net.cpp:223] Memory required for data: 74247552
I0425 14:11:38.627105 30982 layer_factory.hpp:77] Creating layer mbox_1_conf
I0425 14:11:38.627115 30982 net.cpp:119] Creating Layer mbox_1_conf
I0425 14:11:38.627123 30982 net.cpp:562] mbox_1_conf <- conv4_5_1_mbox_conf_flat
I0425 14:11:38.627131 30982 net.cpp:562] mbox_1_conf <- conv5_5_1_mbox_conf_flat
I0425 14:11:38.627140 30982 net.cpp:562] mbox_1_conf <- conv6_6_1_mbox_conf_flat
I0425 14:11:38.627149 30982 net.cpp:536] mbox_1_conf -> mbox_1_conf
I0425 14:11:38.627176 30982 net.cpp:201] Setting up mbox_1_conf
I0425 14:11:38.627187 30982 net.cpp:212] Top shape: 1 40608 (40608)
I0425 14:11:38.627192 30982 net.cpp:223] Memory required for data: 74409984
I0425 14:11:38.627199 30982 layer_factory.hpp:77] Creating layer mbox_1_priorbox
I0425 14:11:38.627208 30982 net.cpp:119] Creating Layer mbox_1_priorbox
I0425 14:11:38.627215 30982 net.cpp:562] mbox_1_priorbox <- conv4_5_1_mbox_priorbox
I0425 14:11:38.627224 30982 net.cpp:562] mbox_1_priorbox <- conv5_5_1_mbox_priorbox
I0425 14:11:38.627231 30982 net.cpp:562] mbox_1_priorbox <- conv6_6_1_mbox_priorbox
I0425 14:11:38.627240 30982 net.cpp:536] mbox_1_priorbox -> mbox_1_priorbox
I0425 14:11:38.627265 30982 net.cpp:201] Setting up mbox_1_priorbox
I0425 14:11:38.627276 30982 net.cpp:212] Top shape: 1 2 81216 (162432)
I0425 14:11:38.627282 30982 net.cpp:223] Memory required for data: 75059712
I0425 14:11:38.627290 30982 layer_factory.hpp:77] Creating layer mbox_1_conf_reshape
I0425 14:11:38.627302 30982 net.cpp:119] Creating Layer mbox_1_conf_reshape
I0425 14:11:38.627310 30982 net.cpp:562] mbox_1_conf_reshape <- mbox_1_conf
I0425 14:11:38.627318 30982 net.cpp:536] mbox_1_conf_reshape -> mbox_1_conf_reshape
I0425 14:11:38.627349 30982 net.cpp:201] Setting up mbox_1_conf_reshape
I0425 14:11:38.627360 30982 net.cpp:212] Top shape: 1 20304 2 (40608)
I0425 14:11:38.627367 30982 net.cpp:223] Memory required for data: 75222144
I0425 14:11:38.627373 30982 layer_factory.hpp:77] Creating layer mbox_1_conf_softmax
I0425 14:11:38.627388 30982 net.cpp:119] Creating Layer mbox_1_conf_softmax
I0425 14:11:38.627395 30982 net.cpp:562] mbox_1_conf_softmax <- mbox_1_conf_reshape
I0425 14:11:38.627404 30982 net.cpp:536] mbox_1_conf_softmax -> mbox_1_conf_softmax
I0425 14:11:38.627600 30982 net.cpp:201] Setting up mbox_1_conf_softmax
I0425 14:11:38.627615 30982 net.cpp:212] Top shape: 1 20304 2 (40608)
I0425 14:11:38.627622 30982 net.cpp:223] Memory required for data: 75384576
I0425 14:11:38.627629 30982 layer_factory.hpp:77] Creating layer mbox_1_conf_flatten
I0425 14:11:38.627640 30982 net.cpp:119] Creating Layer mbox_1_conf_flatten
I0425 14:11:38.627648 30982 net.cpp:562] mbox_1_conf_flatten <- mbox_1_conf_softmax
I0425 14:11:38.627656 30982 net.cpp:536] mbox_1_conf_flatten -> mbox_1_conf_flatten
I0425 14:11:38.627682 30982 net.cpp:201] Setting up mbox_1_conf_flatten
I0425 14:11:38.627693 30982 net.cpp:212] Top shape: 1 40608 (40608)
I0425 14:11:38.627701 30982 net.cpp:223] Memory required for data: 75547008
I0425 14:11:38.627707 30982 layer_factory.hpp:77] Creating layer detection_out_1
I0425 14:11:38.649188 30982 net.cpp:119] Creating Layer detection_out_1
I0425 14:11:38.649269 30982 net.cpp:562] detection_out_1 <- mbox_1_loc
I0425 14:11:38.649286 30982 net.cpp:562] detection_out_1 <- mbox_1_conf_flatten
I0425 14:11:38.649300 30982 net.cpp:562] detection_out_1 <- mbox_1_priorbox
I0425 14:11:38.649312 30982 net.cpp:536] detection_out_1 -> detection_out_1
I0425 14:11:38.649504 30982 net.cpp:201] Setting up detection_out_1
I0425 14:11:38.649529 30982 net.cpp:212] Top shape: 1 1 1 7 (7)
I0425 14:11:38.649539 30982 net.cpp:223] Memory required for data: 75547036
I0425 14:11:38.649550 30982 layer_factory.hpp:77] Creating layer conv4_5_2_inter_1
I0425 14:11:38.649575 30982 net.cpp:119] Creating Layer conv4_5_2_inter_1
I0425 14:11:38.649587 30982 net.cpp:562] conv4_5_2_inter_1 <- conv4_5_conv4_5_relu_0_split_2
I0425 14:11:38.649600 30982 net.cpp:536] conv4_5_2_inter_1 -> conv4_5_2_inter_1
I0425 14:11:38.650148 30982 net.cpp:201] Setting up conv4_5_2_inter_1
I0425 14:11:38.650172 30982 net.cpp:212] Top shape: 1 32 36 64 (73728)
I0425 14:11:38.650182 30982 net.cpp:223] Memory required for data: 75841948
I0425 14:11:38.650204 30982 layer_factory.hpp:77] Creating layer conv4_5_2_inter_1_relu
I0425 14:11:38.650224 30982 net.cpp:119] Creating Layer conv4_5_2_inter_1_relu
I0425 14:11:38.650234 30982 net.cpp:562] conv4_5_2_inter_1_relu <- conv4_5_2_inter_1
I0425 14:11:38.650243 30982 net.cpp:522] conv4_5_2_inter_1_relu -> conv4_5_2_inter_1 (in-place)
I0425 14:11:38.650589 30982 net.cpp:201] Setting up conv4_5_2_inter_1_relu
I0425 14:11:38.650614 30982 net.cpp:212] Top shape: 1 32 36 64 (73728)
I0425 14:11:38.650624 30982 net.cpp:223] Memory required for data: 76136860
I0425 14:11:38.650635 30982 layer_factory.hpp:77] Creating layer conv4_5_2_inter_2
I0425 14:11:38.650655 30982 net.cpp:119] Creating Layer conv4_5_2_inter_2
I0425 14:11:38.650663 30982 net.cpp:562] conv4_5_2_inter_2 <- conv4_5_2_inter_1
I0425 14:11:38.650674 30982 net.cpp:536] conv4_5_2_inter_2 -> conv4_5_2_inter_2
I0425 14:11:38.652981 30982 net.cpp:201] Setting up conv4_5_2_inter_2
I0425 14:11:38.653070 30982 net.cpp:212] Top shape: 1 64 36 64 (147456)
I0425 14:11:38.653079 30982 net.cpp:223] Memory required for data: 76726684
I0425 14:11:38.653100 30982 layer_factory.hpp:77] Creating layer conv4_5_2_inter_2_relu
I0425 14:11:38.653131 30982 net.cpp:119] Creating Layer conv4_5_2_inter_2_relu
I0425 14:11:38.653142 30982 net.cpp:562] conv4_5_2_inter_2_relu <- conv4_5_2_inter_2
I0425 14:11:38.653159 30982 net.cpp:522] conv4_5_2_inter_2_relu -> conv4_5_2_inter_2 (in-place)
I0425 14:11:38.654119 30982 net.cpp:201] Setting up conv4_5_2_inter_2_relu
I0425 14:11:38.654170 30982 net.cpp:212] Top shape: 1 64 36 64 (147456)
I0425 14:11:38.654186 30982 net.cpp:223] Memory required for data: 77316508
I0425 14:11:38.654199 30982 layer_factory.hpp:77] Creating layer conv4_5_2_inter_2_conv4_5_2_inter_2_relu_0_split
I0425 14:11:38.654232 30982 net.cpp:119] Creating Layer conv4_5_2_inter_2_conv4_5_2_inter_2_relu_0_split
I0425 14:11:38.654254 30982 net.cpp:562] conv4_5_2_inter_2_conv4_5_2_inter_2_relu_0_split <- conv4_5_2_inter_2
I0425 14:11:38.654294 30982 net.cpp:536] conv4_5_2_inter_2_conv4_5_2_inter_2_relu_0_split -> conv4_5_2_inter_2_conv4_5_2_inter_2_relu_0_split_0
I0425 14:11:38.654331 30982 net.cpp:536] conv4_5_2_inter_2_conv4_5_2_inter_2_relu_0_split -> conv4_5_2_inter_2_conv4_5_2_inter_2_relu_0_split_1
I0425 14:11:38.654358 30982 net.cpp:536] conv4_5_2_inter_2_conv4_5_2_inter_2_relu_0_split -> conv4_5_2_inter_2_conv4_5_2_inter_2_relu_0_split_2
I0425 14:11:38.654479 30982 net.cpp:201] Setting up conv4_5_2_inter_2_conv4_5_2_inter_2_relu_0_split
I0425 14:11:38.654492 30982 net.cpp:212] Top shape: 1 64 36 64 (147456)
I0425 14:11:38.654500 30982 net.cpp:212] Top shape: 1 64 36 64 (147456)
I0425 14:11:38.654506 30982 net.cpp:212] Top shape: 1 64 36 64 (147456)
I0425 14:11:38.654516 30982 net.cpp:223] Memory required for data: 79085980
I0425 14:11:38.654523 30982 layer_factory.hpp:77] Creating layer conv4_5_2_mbox_loc
I0425 14:11:38.654549 30982 net.cpp:119] Creating Layer conv4_5_2_mbox_loc
I0425 14:11:38.654558 30982 net.cpp:562] conv4_5_2_mbox_loc <- conv4_5_2_inter_2_conv4_5_2_inter_2_relu_0_split_0
I0425 14:11:38.654569 30982 net.cpp:536] conv4_5_2_mbox_loc -> conv4_5_2_mbox_loc
I0425 14:11:38.655484 30982 net.cpp:201] Setting up conv4_5_2_mbox_loc
I0425 14:11:38.655522 30982 net.cpp:212] Top shape: 1 16 36 64 (36864)
I0425 14:11:38.655530 30982 net.cpp:223] Memory required for data: 79233436
I0425 14:11:38.655544 30982 layer_factory.hpp:77] Creating layer conv4_5_2_mbox_loc_perm
I0425 14:11:38.655567 30982 net.cpp:119] Creating Layer conv4_5_2_mbox_loc_perm
I0425 14:11:38.655578 30982 net.cpp:562] conv4_5_2_mbox_loc_perm <- conv4_5_2_mbox_loc
I0425 14:11:38.655589 30982 net.cpp:536] conv4_5_2_mbox_loc_perm -> conv4_5_2_mbox_loc_perm
I0425 14:11:38.655689 30982 net.cpp:201] Setting up conv4_5_2_mbox_loc_perm
I0425 14:11:38.655701 30982 net.cpp:212] Top shape: 1 36 64 16 (36864)
I0425 14:11:38.655709 30982 net.cpp:223] Memory required for data: 79380892
I0425 14:11:38.655715 30982 layer_factory.hpp:77] Creating layer conv4_5_2_mbox_loc_flat
I0425 14:11:38.655730 30982 net.cpp:119] Creating Layer conv4_5_2_mbox_loc_flat
I0425 14:11:38.655738 30982 net.cpp:562] conv4_5_2_mbox_loc_flat <- conv4_5_2_mbox_loc_perm
I0425 14:11:38.655748 30982 net.cpp:536] conv4_5_2_mbox_loc_flat -> conv4_5_2_mbox_loc_flat
I0425 14:11:38.655795 30982 net.cpp:201] Setting up conv4_5_2_mbox_loc_flat
I0425 14:11:38.655810 30982 net.cpp:212] Top shape: 1 36864 (36864)
I0425 14:11:38.655817 30982 net.cpp:223] Memory required for data: 79528348
I0425 14:11:38.655824 30982 layer_factory.hpp:77] Creating layer conv4_5_2_mbox_conf
I0425 14:11:38.655843 30982 net.cpp:119] Creating Layer conv4_5_2_mbox_conf
I0425 14:11:38.655853 30982 net.cpp:562] conv4_5_2_mbox_conf <- conv4_5_2_inter_2_conv4_5_2_inter_2_relu_0_split_1
I0425 14:11:38.655869 30982 net.cpp:536] conv4_5_2_mbox_conf -> conv4_5_2_mbox_conf
I0425 14:11:38.657495 30982 net.cpp:201] Setting up conv4_5_2_mbox_conf
I0425 14:11:38.657537 30982 net.cpp:212] Top shape: 1 6 36 64 (13824)
I0425 14:11:38.657546 30982 net.cpp:223] Memory required for data: 79583644
I0425 14:11:38.657559 30982 layer_factory.hpp:77] Creating layer conv4_5_2_mbox_conf_perm
I0425 14:11:38.657578 30982 net.cpp:119] Creating Layer conv4_5_2_mbox_conf_perm
I0425 14:11:38.657590 30982 net.cpp:562] conv4_5_2_mbox_conf_perm <- conv4_5_2_mbox_conf
I0425 14:11:38.657603 30982 net.cpp:536] conv4_5_2_mbox_conf_perm -> conv4_5_2_mbox_conf_perm
I0425 14:11:38.657699 30982 net.cpp:201] Setting up conv4_5_2_mbox_conf_perm
I0425 14:11:38.657712 30982 net.cpp:212] Top shape: 1 36 64 6 (13824)
I0425 14:11:38.657722 30982 net.cpp:223] Memory required for data: 79638940
I0425 14:11:38.657728 30982 layer_factory.hpp:77] Creating layer conv4_5_2_mbox_conf_flat
I0425 14:11:38.657742 30982 net.cpp:119] Creating Layer conv4_5_2_mbox_conf_flat
I0425 14:11:38.657749 30982 net.cpp:562] conv4_5_2_mbox_conf_flat <- conv4_5_2_mbox_conf_perm
I0425 14:11:38.657758 30982 net.cpp:536] conv4_5_2_mbox_conf_flat -> conv4_5_2_mbox_conf_flat
I0425 14:11:38.657797 30982 net.cpp:201] Setting up conv4_5_2_mbox_conf_flat
I0425 14:11:38.657819 30982 net.cpp:212] Top shape: 1 13824 (13824)
I0425 14:11:38.657833 30982 net.cpp:223] Memory required for data: 79694236
I0425 14:11:38.657845 30982 layer_factory.hpp:77] Creating layer conv4_5_2_mbox_priorbox
I0425 14:11:38.657863 30982 net.cpp:119] Creating Layer conv4_5_2_mbox_priorbox
I0425 14:11:38.657872 30982 net.cpp:562] conv4_5_2_mbox_priorbox <- conv4_5_2_inter_2_conv4_5_2_inter_2_relu_0_split_2
I0425 14:11:38.657882 30982 net.cpp:562] conv4_5_2_mbox_priorbox <- data_input_0_split_4
I0425 14:11:38.657896 30982 net.cpp:536] conv4_5_2_mbox_priorbox -> conv4_5_2_mbox_priorbox
I0425 14:11:38.657933 30982 net.cpp:201] Setting up conv4_5_2_mbox_priorbox
I0425 14:11:38.657946 30982 net.cpp:212] Top shape: 1 2 18432 (36864)
I0425 14:11:38.657953 30982 net.cpp:223] Memory required for data: 79841692
I0425 14:11:38.657960 30982 layer_factory.hpp:77] Creating layer conv5_5_2_inter_1
I0425 14:11:38.657984 30982 net.cpp:119] Creating Layer conv5_5_2_inter_1
I0425 14:11:38.657994 30982 net.cpp:562] conv5_5_2_inter_1 <- conv5_5_conv5_5_relu_0_split_2
I0425 14:11:38.658006 30982 net.cpp:536] conv5_5_2_inter_1 -> conv5_5_2_inter_1
I0425 14:11:38.658459 30982 net.cpp:201] Setting up conv5_5_2_inter_1
I0425 14:11:38.658473 30982 net.cpp:212] Top shape: 1 32 18 32 (18432)
I0425 14:11:38.658479 30982 net.cpp:223] Memory required for data: 79915420
I0425 14:11:38.658490 30982 layer_factory.hpp:77] Creating layer conv5_5_2_inter_1_relu
I0425 14:11:38.658500 30982 net.cpp:119] Creating Layer conv5_5_2_inter_1_relu
I0425 14:11:38.658509 30982 net.cpp:562] conv5_5_2_inter_1_relu <- conv5_5_2_inter_1
I0425 14:11:38.658517 30982 net.cpp:522] conv5_5_2_inter_1_relu -> conv5_5_2_inter_1 (in-place)
I0425 14:11:38.659158 30982 net.cpp:201] Setting up conv5_5_2_inter_1_relu
I0425 14:11:38.659178 30982 net.cpp:212] Top shape: 1 32 18 32 (18432)
I0425 14:11:38.659184 30982 net.cpp:223] Memory required for data: 79989148
I0425 14:11:38.659190 30982 layer_factory.hpp:77] Creating layer conv5_5_2_inter_2
I0425 14:11:38.659204 30982 net.cpp:119] Creating Layer conv5_5_2_inter_2
I0425 14:11:38.659212 30982 net.cpp:562] conv5_5_2_inter_2 <- conv5_5_2_inter_1
I0425 14:11:38.659224 30982 net.cpp:536] conv5_5_2_inter_2 -> conv5_5_2_inter_2
I0425 14:11:38.660760 30982 net.cpp:201] Setting up conv5_5_2_inter_2
I0425 14:11:38.660778 30982 net.cpp:212] Top shape: 1 64 18 32 (36864)
I0425 14:11:38.660785 30982 net.cpp:223] Memory required for data: 80136604
I0425 14:11:38.660794 30982 layer_factory.hpp:77] Creating layer conv5_5_2_inter_2_relu
I0425 14:11:38.660806 30982 net.cpp:119] Creating Layer conv5_5_2_inter_2_relu
I0425 14:11:38.660814 30982 net.cpp:562] conv5_5_2_inter_2_relu <- conv5_5_2_inter_2
I0425 14:11:38.660825 30982 net.cpp:522] conv5_5_2_inter_2_relu -> conv5_5_2_inter_2 (in-place)
I0425 14:11:38.660977 30982 net.cpp:201] Setting up conv5_5_2_inter_2_relu
I0425 14:11:38.660990 30982 net.cpp:212] Top shape: 1 64 18 32 (36864)
I0425 14:11:38.660996 30982 net.cpp:223] Memory required for data: 80284060
I0425 14:11:38.661003 30982 layer_factory.hpp:77] Creating layer conv5_5_2_inter_2_conv5_5_2_inter_2_relu_0_split
I0425 14:11:38.661015 30982 net.cpp:119] Creating Layer conv5_5_2_inter_2_conv5_5_2_inter_2_relu_0_split
I0425 14:11:38.661022 30982 net.cpp:562] conv5_5_2_inter_2_conv5_5_2_inter_2_relu_0_split <- conv5_5_2_inter_2
I0425 14:11:38.661031 30982 net.cpp:536] conv5_5_2_inter_2_conv5_5_2_inter_2_relu_0_split -> conv5_5_2_inter_2_conv5_5_2_inter_2_relu_0_split_0
I0425 14:11:38.661042 30982 net.cpp:536] conv5_5_2_inter_2_conv5_5_2_inter_2_relu_0_split -> conv5_5_2_inter_2_conv5_5_2_inter_2_relu_0_split_1
I0425 14:11:38.661053 30982 net.cpp:536] conv5_5_2_inter_2_conv5_5_2_inter_2_relu_0_split -> conv5_5_2_inter_2_conv5_5_2_inter_2_relu_0_split_2
I0425 14:11:38.661103 30982 net.cpp:201] Setting up conv5_5_2_inter_2_conv5_5_2_inter_2_relu_0_split
I0425 14:11:38.661113 30982 net.cpp:212] Top shape: 1 64 18 32 (36864)
I0425 14:11:38.661119 30982 net.cpp:212] Top shape: 1 64 18 32 (36864)
I0425 14:11:38.661128 30982 net.cpp:212] Top shape: 1 64 18 32 (36864)
I0425 14:11:38.661134 30982 net.cpp:223] Memory required for data: 80726428
I0425 14:11:38.661140 30982 layer_factory.hpp:77] Creating layer conv5_5_2_mbox_loc
I0425 14:11:38.661154 30982 net.cpp:119] Creating Layer conv5_5_2_mbox_loc
I0425 14:11:38.661160 30982 net.cpp:562] conv5_5_2_mbox_loc <- conv5_5_2_inter_2_conv5_5_2_inter_2_relu_0_split_0
I0425 14:11:38.661171 30982 net.cpp:536] conv5_5_2_mbox_loc -> conv5_5_2_mbox_loc
I0425 14:11:38.662784 30982 net.cpp:201] Setting up conv5_5_2_mbox_loc
I0425 14:11:38.662806 30982 net.cpp:212] Top shape: 1 72 18 32 (41472)
I0425 14:11:38.662813 30982 net.cpp:223] Memory required for data: 80892316
I0425 14:11:38.662822 30982 layer_factory.hpp:77] Creating layer conv5_5_2_mbox_loc_perm
I0425 14:11:38.662834 30982 net.cpp:119] Creating Layer conv5_5_2_mbox_loc_perm
I0425 14:11:38.662842 30982 net.cpp:562] conv5_5_2_mbox_loc_perm <- conv5_5_2_mbox_loc
I0425 14:11:38.662852 30982 net.cpp:536] conv5_5_2_mbox_loc_perm -> conv5_5_2_mbox_loc_perm
I0425 14:11:38.662955 30982 net.cpp:201] Setting up conv5_5_2_mbox_loc_perm
I0425 14:11:38.662968 30982 net.cpp:212] Top shape: 1 18 32 72 (41472)
I0425 14:11:38.662974 30982 net.cpp:223] Memory required for data: 81058204
I0425 14:11:38.662981 30982 layer_factory.hpp:77] Creating layer conv5_5_2_mbox_loc_flat
I0425 14:11:38.662992 30982 net.cpp:119] Creating Layer conv5_5_2_mbox_loc_flat
I0425 14:11:38.663000 30982 net.cpp:562] conv5_5_2_mbox_loc_flat <- conv5_5_2_mbox_loc_perm
I0425 14:11:38.663010 30982 net.cpp:536] conv5_5_2_mbox_loc_flat -> conv5_5_2_mbox_loc_flat
I0425 14:11:38.663036 30982 net.cpp:201] Setting up conv5_5_2_mbox_loc_flat
I0425 14:11:38.663046 30982 net.cpp:212] Top shape: 1 41472 (41472)
I0425 14:11:38.663053 30982 net.cpp:223] Memory required for data: 81224092
I0425 14:11:38.663060 30982 layer_factory.hpp:77] Creating layer conv5_5_2_mbox_conf
I0425 14:11:38.663074 30982 net.cpp:119] Creating Layer conv5_5_2_mbox_conf
I0425 14:11:38.663081 30982 net.cpp:562] conv5_5_2_mbox_conf <- conv5_5_2_inter_2_conv5_5_2_inter_2_relu_0_split_1
I0425 14:11:38.663091 30982 net.cpp:536] conv5_5_2_mbox_conf -> conv5_5_2_mbox_conf
I0425 14:11:38.664209 30982 net.cpp:201] Setting up conv5_5_2_mbox_conf
I0425 14:11:38.664228 30982 net.cpp:212] Top shape: 1 27 18 32 (15552)
I0425 14:11:38.664235 30982 net.cpp:223] Memory required for data: 81286300
I0425 14:11:38.664245 30982 layer_factory.hpp:77] Creating layer conv5_5_2_mbox_conf_perm
I0425 14:11:38.664257 30982 net.cpp:119] Creating Layer conv5_5_2_mbox_conf_perm
I0425 14:11:38.664264 30982 net.cpp:562] conv5_5_2_mbox_conf_perm <- conv5_5_2_mbox_conf
I0425 14:11:38.664274 30982 net.cpp:536] conv5_5_2_mbox_conf_perm -> conv5_5_2_mbox_conf_perm
I0425 14:11:38.664362 30982 net.cpp:201] Setting up conv5_5_2_mbox_conf_perm
I0425 14:11:38.664373 30982 net.cpp:212] Top shape: 1 18 32 27 (15552)
I0425 14:11:38.664379 30982 net.cpp:223] Memory required for data: 81348508
I0425 14:11:38.664386 30982 layer_factory.hpp:77] Creating layer conv5_5_2_mbox_conf_flat
I0425 14:11:38.664394 30982 net.cpp:119] Creating Layer conv5_5_2_mbox_conf_flat
I0425 14:11:38.664402 30982 net.cpp:562] conv5_5_2_mbox_conf_flat <- conv5_5_2_mbox_conf_perm
I0425 14:11:38.664410 30982 net.cpp:536] conv5_5_2_mbox_conf_flat -> conv5_5_2_mbox_conf_flat
I0425 14:11:38.664435 30982 net.cpp:201] Setting up conv5_5_2_mbox_conf_flat
I0425 14:11:38.664444 30982 net.cpp:212] Top shape: 1 15552 (15552)
I0425 14:11:38.664450 30982 net.cpp:223] Memory required for data: 81410716
I0425 14:11:38.664456 30982 layer_factory.hpp:77] Creating layer conv5_5_2_mbox_priorbox
I0425 14:11:38.664466 30982 net.cpp:119] Creating Layer conv5_5_2_mbox_priorbox
I0425 14:11:38.664472 30982 net.cpp:562] conv5_5_2_mbox_priorbox <- conv5_5_2_inter_2_conv5_5_2_inter_2_relu_0_split_2
I0425 14:11:38.664480 30982 net.cpp:562] conv5_5_2_mbox_priorbox <- data_input_0_split_5
I0425 14:11:38.664489 30982 net.cpp:536] conv5_5_2_mbox_priorbox -> conv5_5_2_mbox_priorbox
I0425 14:11:38.664515 30982 net.cpp:201] Setting up conv5_5_2_mbox_priorbox
I0425 14:11:38.664525 30982 net.cpp:212] Top shape: 1 2 20736 (41472)
I0425 14:11:38.664530 30982 net.cpp:223] Memory required for data: 81576604
I0425 14:11:38.664535 30982 layer_factory.hpp:77] Creating layer conv6_6_2_inter_1
I0425 14:11:38.664547 30982 net.cpp:119] Creating Layer conv6_6_2_inter_1
I0425 14:11:38.664554 30982 net.cpp:562] conv6_6_2_inter_1 <- conv6_6_conv6_6_relu_0_split_1
I0425 14:11:38.664564 30982 net.cpp:536] conv6_6_2_inter_1 -> conv6_6_2_inter_1
I0425 14:11:38.664870 30982 net.cpp:201] Setting up conv6_6_2_inter_1
I0425 14:11:38.664881 30982 net.cpp:212] Top shape: 1 32 9 16 (4608)
I0425 14:11:38.664887 30982 net.cpp:223] Memory required for data: 81595036
I0425 14:11:38.664896 30982 layer_factory.hpp:77] Creating layer conv6_6_2_inter_1_relu
I0425 14:11:38.664904 30982 net.cpp:119] Creating Layer conv6_6_2_inter_1_relu
I0425 14:11:38.664911 30982 net.cpp:562] conv6_6_2_inter_1_relu <- conv6_6_2_inter_1
I0425 14:11:38.664919 30982 net.cpp:522] conv6_6_2_inter_1_relu -> conv6_6_2_inter_1 (in-place)
I0425 14:11:38.665432 30982 net.cpp:201] Setting up conv6_6_2_inter_1_relu
I0425 14:11:38.665449 30982 net.cpp:212] Top shape: 1 32 9 16 (4608)
I0425 14:11:38.665455 30982 net.cpp:223] Memory required for data: 81613468
I0425 14:11:38.665462 30982 layer_factory.hpp:77] Creating layer conv6_6_2_inter_2
I0425 14:11:38.665474 30982 net.cpp:119] Creating Layer conv6_6_2_inter_2
I0425 14:11:38.665482 30982 net.cpp:562] conv6_6_2_inter_2 <- conv6_6_2_inter_1
I0425 14:11:38.665491 30982 net.cpp:536] conv6_6_2_inter_2 -> conv6_6_2_inter_2
I0425 14:11:38.666997 30982 net.cpp:201] Setting up conv6_6_2_inter_2
I0425 14:11:38.667016 30982 net.cpp:212] Top shape: 1 64 9 16 (9216)
I0425 14:11:38.667022 30982 net.cpp:223] Memory required for data: 81650332
I0425 14:11:38.667032 30982 layer_factory.hpp:77] Creating layer conv6_6_2_inter_2_relu
I0425 14:11:38.667040 30982 net.cpp:119] Creating Layer conv6_6_2_inter_2_relu
I0425 14:11:38.667047 30982 net.cpp:562] conv6_6_2_inter_2_relu <- conv6_6_2_inter_2
I0425 14:11:38.667057 30982 net.cpp:522] conv6_6_2_inter_2_relu -> conv6_6_2_inter_2 (in-place)
I0425 14:11:38.667203 30982 net.cpp:201] Setting up conv6_6_2_inter_2_relu
I0425 14:11:38.667217 30982 net.cpp:212] Top shape: 1 64 9 16 (9216)
I0425 14:11:38.667222 30982 net.cpp:223] Memory required for data: 81687196
I0425 14:11:38.667228 30982 layer_factory.hpp:77] Creating layer conv6_6_2_inter_2_conv6_6_2_inter_2_relu_0_split
I0425 14:11:38.667238 30982 net.cpp:119] Creating Layer conv6_6_2_inter_2_conv6_6_2_inter_2_relu_0_split
I0425 14:11:38.667244 30982 net.cpp:562] conv6_6_2_inter_2_conv6_6_2_inter_2_relu_0_split <- conv6_6_2_inter_2
I0425 14:11:38.667253 30982 net.cpp:536] conv6_6_2_inter_2_conv6_6_2_inter_2_relu_0_split -> conv6_6_2_inter_2_conv6_6_2_inter_2_relu_0_split_0
I0425 14:11:38.667263 30982 net.cpp:536] conv6_6_2_inter_2_conv6_6_2_inter_2_relu_0_split -> conv6_6_2_inter_2_conv6_6_2_inter_2_relu_0_split_1
I0425 14:11:38.667273 30982 net.cpp:536] conv6_6_2_inter_2_conv6_6_2_inter_2_relu_0_split -> conv6_6_2_inter_2_conv6_6_2_inter_2_relu_0_split_2
I0425 14:11:38.667322 30982 net.cpp:201] Setting up conv6_6_2_inter_2_conv6_6_2_inter_2_relu_0_split
I0425 14:11:38.667332 30982 net.cpp:212] Top shape: 1 64 9 16 (9216)
I0425 14:11:38.667340 30982 net.cpp:212] Top shape: 1 64 9 16 (9216)
I0425 14:11:38.667346 30982 net.cpp:212] Top shape: 1 64 9 16 (9216)
I0425 14:11:38.667351 30982 net.cpp:223] Memory required for data: 81797788
I0425 14:11:38.667356 30982 layer_factory.hpp:77] Creating layer conv6_6_2_mbox_loc
I0425 14:11:38.667367 30982 net.cpp:119] Creating Layer conv6_6_2_mbox_loc
I0425 14:11:38.667374 30982 net.cpp:562] conv6_6_2_mbox_loc <- conv6_6_2_inter_2_conv6_6_2_inter_2_relu_0_split_0
I0425 14:11:38.667384 30982 net.cpp:536] conv6_6_2_mbox_loc -> conv6_6_2_mbox_loc
I0425 14:11:38.669095 30982 net.cpp:201] Setting up conv6_6_2_mbox_loc
I0425 14:11:38.669112 30982 net.cpp:212] Top shape: 1 88 9 16 (12672)
I0425 14:11:38.669119 30982 net.cpp:223] Memory required for data: 81848476
I0425 14:11:38.669129 30982 layer_factory.hpp:77] Creating layer conv6_6_2_mbox_loc_perm
I0425 14:11:38.669139 30982 net.cpp:119] Creating Layer conv6_6_2_mbox_loc_perm
I0425 14:11:38.669147 30982 net.cpp:562] conv6_6_2_mbox_loc_perm <- conv6_6_2_mbox_loc
I0425 14:11:38.669157 30982 net.cpp:536] conv6_6_2_mbox_loc_perm -> conv6_6_2_mbox_loc_perm
I0425 14:11:38.669253 30982 net.cpp:201] Setting up conv6_6_2_mbox_loc_perm
I0425 14:11:38.669265 30982 net.cpp:212] Top shape: 1 9 16 88 (12672)
I0425 14:11:38.669270 30982 net.cpp:223] Memory required for data: 81899164
I0425 14:11:38.669275 30982 layer_factory.hpp:77] Creating layer conv6_6_2_mbox_loc_flat
I0425 14:11:38.669286 30982 net.cpp:119] Creating Layer conv6_6_2_mbox_loc_flat
I0425 14:11:38.669293 30982 net.cpp:562] conv6_6_2_mbox_loc_flat <- conv6_6_2_mbox_loc_perm
I0425 14:11:38.669301 30982 net.cpp:536] conv6_6_2_mbox_loc_flat -> conv6_6_2_mbox_loc_flat
I0425 14:11:38.669327 30982 net.cpp:201] Setting up conv6_6_2_mbox_loc_flat
I0425 14:11:38.669335 30982 net.cpp:212] Top shape: 1 12672 (12672)
I0425 14:11:38.669340 30982 net.cpp:223] Memory required for data: 81949852
I0425 14:11:38.669347 30982 layer_factory.hpp:77] Creating layer conv6_6_2_mbox_conf
I0425 14:11:38.669358 30982 net.cpp:119] Creating Layer conv6_6_2_mbox_conf
I0425 14:11:38.669364 30982 net.cpp:562] conv6_6_2_mbox_conf <- conv6_6_2_inter_2_conv6_6_2_inter_2_relu_0_split_1
I0425 14:11:38.669374 30982 net.cpp:536] conv6_6_2_mbox_conf -> conv6_6_2_mbox_conf
I0425 14:11:38.670511 30982 net.cpp:201] Setting up conv6_6_2_mbox_conf
I0425 14:11:38.670527 30982 net.cpp:212] Top shape: 1 33 9 16 (4752)
I0425 14:11:38.670533 30982 net.cpp:223] Memory required for data: 81968860
I0425 14:11:38.670542 30982 layer_factory.hpp:77] Creating layer conv6_6_2_mbox_conf_perm
I0425 14:11:38.670553 30982 net.cpp:119] Creating Layer conv6_6_2_mbox_conf_perm
I0425 14:11:38.670562 30982 net.cpp:562] conv6_6_2_mbox_conf_perm <- conv6_6_2_mbox_conf
I0425 14:11:38.670570 30982 net.cpp:536] conv6_6_2_mbox_conf_perm -> conv6_6_2_mbox_conf_perm
I0425 14:11:38.670660 30982 net.cpp:201] Setting up conv6_6_2_mbox_conf_perm
I0425 14:11:38.670672 30982 net.cpp:212] Top shape: 1 9 16 33 (4752)
I0425 14:11:38.670678 30982 net.cpp:223] Memory required for data: 81987868
I0425 14:11:38.670683 30982 layer_factory.hpp:77] Creating layer conv6_6_2_mbox_conf_flat
I0425 14:11:38.670691 30982 net.cpp:119] Creating Layer conv6_6_2_mbox_conf_flat
I0425 14:11:38.670698 30982 net.cpp:562] conv6_6_2_mbox_conf_flat <- conv6_6_2_mbox_conf_perm
I0425 14:11:38.670707 30982 net.cpp:536] conv6_6_2_mbox_conf_flat -> conv6_6_2_mbox_conf_flat
I0425 14:11:38.670730 30982 net.cpp:201] Setting up conv6_6_2_mbox_conf_flat
I0425 14:11:38.670739 30982 net.cpp:212] Top shape: 1 4752 (4752)
I0425 14:11:38.670745 30982 net.cpp:223] Memory required for data: 82006876
I0425 14:11:38.670750 30982 layer_factory.hpp:77] Creating layer conv6_6_2_mbox_priorbox
I0425 14:11:38.670760 30982 net.cpp:119] Creating Layer conv6_6_2_mbox_priorbox
I0425 14:11:38.670768 30982 net.cpp:562] conv6_6_2_mbox_priorbox <- conv6_6_2_inter_2_conv6_6_2_inter_2_relu_0_split_2
I0425 14:11:38.670774 30982 net.cpp:562] conv6_6_2_mbox_priorbox <- data_input_0_split_6
I0425 14:11:38.670783 30982 net.cpp:536] conv6_6_2_mbox_priorbox -> conv6_6_2_mbox_priorbox
I0425 14:11:38.670809 30982 net.cpp:201] Setting up conv6_6_2_mbox_priorbox
I0425 14:11:38.670819 30982 net.cpp:212] Top shape: 1 2 6336 (12672)
I0425 14:11:38.670823 30982 net.cpp:223] Memory required for data: 82057564
I0425 14:11:38.670830 30982 layer_factory.hpp:77] Creating layer mbox_2_loc
I0425 14:11:38.670852 30982 net.cpp:119] Creating Layer mbox_2_loc
I0425 14:11:38.670859 30982 net.cpp:562] mbox_2_loc <- conv4_5_2_mbox_loc_flat
I0425 14:11:38.670866 30982 net.cpp:562] mbox_2_loc <- conv5_5_2_mbox_loc_flat
I0425 14:11:38.670873 30982 net.cpp:562] mbox_2_loc <- conv6_6_2_mbox_loc_flat
I0425 14:11:38.670881 30982 net.cpp:536] mbox_2_loc -> mbox_2_loc
I0425 14:11:38.670907 30982 net.cpp:201] Setting up mbox_2_loc
I0425 14:11:38.670917 30982 net.cpp:212] Top shape: 1 91008 (91008)
I0425 14:11:38.670922 30982 net.cpp:223] Memory required for data: 82421596
I0425 14:11:38.670928 30982 layer_factory.hpp:77] Creating layer mbox_2_conf
I0425 14:11:38.670938 30982 net.cpp:119] Creating Layer mbox_2_conf
I0425 14:11:38.670944 30982 net.cpp:562] mbox_2_conf <- conv4_5_2_mbox_conf_flat
I0425 14:11:38.670953 30982 net.cpp:562] mbox_2_conf <- conv5_5_2_mbox_conf_flat
I0425 14:11:38.670963 30982 net.cpp:562] mbox_2_conf <- conv6_6_2_mbox_conf_flat
I0425 14:11:38.670974 30982 net.cpp:536] mbox_2_conf -> mbox_2_conf
I0425 14:11:38.671000 30982 net.cpp:201] Setting up mbox_2_conf
I0425 14:11:38.671008 30982 net.cpp:212] Top shape: 1 34128 (34128)
I0425 14:11:38.671013 30982 net.cpp:223] Memory required for data: 82558108
I0425 14:11:38.671020 30982 layer_factory.hpp:77] Creating layer mbox_2_priorbox
I0425 14:11:38.671028 30982 net.cpp:119] Creating Layer mbox_2_priorbox
I0425 14:11:38.671036 30982 net.cpp:562] mbox_2_priorbox <- conv4_5_2_mbox_priorbox
I0425 14:11:38.671041 30982 net.cpp:562] mbox_2_priorbox <- conv5_5_2_mbox_priorbox
I0425 14:11:38.671048 30982 net.cpp:562] mbox_2_priorbox <- conv6_6_2_mbox_priorbox
I0425 14:11:38.671056 30982 net.cpp:536] mbox_2_priorbox -> mbox_2_priorbox
I0425 14:11:38.671079 30982 net.cpp:201] Setting up mbox_2_priorbox
I0425 14:11:38.671088 30982 net.cpp:212] Top shape: 1 2 45504 (91008)
I0425 14:11:38.671094 30982 net.cpp:223] Memory required for data: 82922140
I0425 14:11:38.671099 30982 layer_factory.hpp:77] Creating layer mbox_2_conf_sigmoid
I0425 14:11:38.671109 30982 net.cpp:119] Creating Layer mbox_2_conf_sigmoid
I0425 14:11:38.671115 30982 net.cpp:562] mbox_2_conf_sigmoid <- mbox_2_conf
I0425 14:11:38.671123 30982 net.cpp:536] mbox_2_conf_sigmoid -> mbox_2_conf_sigmoid
I0425 14:11:38.671279 30982 net.cpp:201] Setting up mbox_2_conf_sigmoid
I0425 14:11:38.671291 30982 net.cpp:212] Top shape: 1 34128 (34128)
I0425 14:11:38.671298 30982 net.cpp:223] Memory required for data: 83058652
I0425 14:11:38.671303 30982 layer_factory.hpp:77] Creating layer detection_out_2
I0425 14:11:38.671320 30982 net.cpp:119] Creating Layer detection_out_2
I0425 14:11:38.671327 30982 net.cpp:562] detection_out_2 <- mbox_2_loc
I0425 14:11:38.671334 30982 net.cpp:562] detection_out_2 <- mbox_2_conf_sigmoid
I0425 14:11:38.671340 30982 net.cpp:562] detection_out_2 <- mbox_2_priorbox
I0425 14:11:38.671350 30982 net.cpp:536] detection_out_2 -> detection_out_2
I0425 14:11:38.671378 30982 net.cpp:201] Setting up detection_out_2
I0425 14:11:38.671388 30982 net.cpp:212] Top shape: 1 1 1 7 (7)
I0425 14:11:38.671393 30982 net.cpp:223] Memory required for data: 83058680
I0425 14:11:38.671399 30982 layer_factory.hpp:77] Creating layer det_out
I0425 14:11:38.671407 30982 net.cpp:119] Creating Layer det_out
I0425 14:11:38.671413 30982 net.cpp:562] det_out <- detection_out_1
I0425 14:11:38.671419 30982 net.cpp:562] det_out <- detection_out_2
I0425 14:11:38.671428 30982 net.cpp:536] det_out -> det_out
I0425 14:11:38.671452 30982 net.cpp:201] Setting up det_out
I0425 14:11:38.671461 30982 net.cpp:212] Top shape: 1 1 2 7 (14)
I0425 14:11:38.671468 30982 net.cpp:223] Memory required for data: 83058736
I0425 14:11:38.671473 30982 net.cpp:318] det_out does not need backward computation.
I0425 14:11:38.671479 30982 net.cpp:318] detection_out_2 does not need backward computation.
I0425 14:11:38.671485 30982 net.cpp:318] mbox_2_conf_sigmoid does not need backward computation.
I0425 14:11:38.671491 30982 net.cpp:318] mbox_2_priorbox does not need backward computation.
…
